models/cifar10_conv_model.pth (torch, 251275 bytes, 10 tensors)

conv1.weight f4 [6, 3, 5, 5]
00000000: b902 58be 85da fcbd 6b72 94bc 9895 a03d
00000010: ae3b 263e 75cd 29be 640b 0fbe dcaf a23d
00000020: 713d 6f3e ec8b f93d 73b3 cbbd f0df 4fbc
00000030: b403 503d 1db8 1e3e 1eae 353e dc3c 5d3d
00000040: 957d e53d b75e 233b bd5c 193d fae9 02bd
00000050: ab0f 283e 5b59 703d 15d8 f53b 90f1 aabd
00000060: f7c2 7fbd cc1d c1bd 002e e9bd 6a3d d7bd
00000070: e3be 7b3d 6edc 0d3d d8f1 1bbe 0e52 a5bd
00000080: 3424 c93c 7802 123b 0833 913d 7c4f f9bd
00000090: a719 34bb 6243 c53c 5dba 0dbd a905 98bd
000000a0: 8c39 90bd 2622 3dbe c834 d6ba 1295 b2bd
000000b0: fc5e 443d 81cd b7bd 2344 e9bc fa5d 8d3d
000000c0: ec68 48bb c17c 21bd 3c90 94ba 4c2e 203d
000000d0: bf59 503e 3295 883e f557 8e3d 8e68 c5bc
000000e0: 7fd8 8abd 4cb9 893e 9ff9 a03e 718b 593e
000000f0: 7e62 5dbc acb0 51bc c5c6 3c3e fe1c 5f3e
00000100: 9b26 fd3d 36c6 c53c c192 b03d 67d1 303e
00000110: 6a4f 2c3e 75f6 213d 9372 11bb 0c8d 813d
00000120: 1ea2 ba3c bd0a 03bd 9a7d 06bd 4ce1 bdbd
00000130: 83d5 6ebe 0272 bcbd 71ed 1ebe 2b5e 80be
00000140: 5b48 71be c14c 6bbe e82d 2bbe 09e6 c2bd
00000150: bbf1 c9bd c0c3 a1be 15a8 53be acf9 53be
00000160: e0d6 4ebe 1a92 75be 9a0e 80be 63b4 25bc
00000170: 6351 d7bc 43ca 40be d55c 31bd d4b0 57be
00000180: c03a 72be c43d d9bd 34ab 22be 620c 49be
00000190: 53cb c93c 0814 fc3d b19f c03c 9122 593d
000001a0: e25e e4bc 4445 d3b9 e06d 013e e2b6 fa3b
000001b0: 48af 8f3d ab28 51bd 3500 91bd 418a 053e
000001c0: 8df6 5a3e 561d d93d 08ea 16be fe82 183d
000001d0: decc 8b3e e4db 413d 73c8 593e 348d 2bbd
000001e0: 150c 3bbe f753 fcbc 0340 93bc db5d 03be
000001f0: de08 3bbe 7fc8 ca3d 4ba4 003e ffdc 643e
00000200: f365 813e db18 f73d ff16 f63d e265 a83e
00000210: c359 883e c947 4d3e 269d c53c 33e9 223e
00000220: 1e47 803e 53b5 043e ea3e 803e 0222 013d
00000230: bc83 603e 87f2 393e 9000 2b3e 5536 af3e
00000240: 7de8 f4bc b417 29be dbbd 1b3e 6903 ea3d
00000250: e4da 313e 57a0 a7bc 4eed febd 740a 233e
00000260: 06a2 8cbc d2d8 313e e773 09be d236 e9bd
00000270: 6089 1d3e b7be 46be 1ee1 523e 1081 4bbe
00000280: c828 50bd 4918 0e3f 5a38 2abf 91ce 52bc
00000290: 5cd9 9c3d e180 4c3e 73e4 023f 6da6 85bf
000002a0: a2a3 b53d b197 d23e 9614 7dbd 2002 0b3e
000002b0: 9961 15bf c1da e73d 8fae d63d ff26 b93c
000002c0: 084b 06bb 8a89 7fbd 2ba4 9fbd c15c 95bd
000002d0: 01f2 0a3e 0d68 0e3e 97ab b7be 1fcb d53c
000002e0: 8573 7ebc 9c1b 8f3d 8be4 f23e 26dd 6bbf
000002f0: bac8 e9ba 4519 243e 78a5 e33e 17af fb3e
00000300: c91d 88bf f409 49bb 826f e93e 5022 0c3e
00000310: b7eb 243e 7c39 36bf 7c55 373e 12cc 8e3c
00000320: a2b8 06be 53b8 fdbd b4ef e0bc 5ab5 893d
00000330: 09cc e0bd 8b1f 1dbd 9311 5b3e 7041 0cbe
00000340: 0401 163e 0508 29bd 6d47 65bd 661d 8e3e
00000350: ca35 29bf 9379 9c3d 5653 5a3e 8b6a 1e3e
00000360: e5c3 e73e a9a6 7dbf c067 9c3c 7bd3 df3e
00000370: 41d8 ae3c b24c 843e a757 14bf 7e30 d53d
00000380: 648f 0b3e 29bd c03e 087a ab3e bc05 ea3e
00000390: 519c c73e 1813 943e f08a 083e 58dc 903e
000003a0: a6c3 a63e 435e cf3e 38c1 a13e d3d2 443d
000003b0: cc6b e6bc fbb6 673e e7ae 993d c255 423d
000003c0: 8bcf 8cbd 6238 52be 8f00 5abe 25bc 92bd
000003d0: 24dc 093d a54d 4fbe fb68 ebbe fbbd ecbe
000003e0: fe22 debe 6096 a0be 064d 38be 6fda ebbd
000003f0: 9b33 8bbd b6ab 853d 6367 233d a66f f8be
-0.21094789 -0.12346367 -0.018120965 0.07841033 0.16233703 -0.16582282 -0.13969189 0.07943699
0.23363282 0.12184891 -0.099463366 -0.012687668 0.05078478 0.15499921 0.17742202 0.05401312
0.112055935 0.002492828 0.037441958 -0.03196142 0.16412227 0.058678966 0.0075025656 -0.08346856
-0.062441792 -0.094295114 -0.11385727 -0.10509761 0.06146134 0.034634046 -0.15228975 -0.08072291
0.024553396 0.0022279304 0.070898116 -0.121733636 -0.002748111 0.024079982 -0.034601558 -0.074229546
-0.07042226 -0.18470058 -0.0016342634 -0.08719839 0.047942147 -0.08974744 -0.028474873 0.0690269
-0.0030580116 -0.039425615 -0.0011334489 0.039106652 0.20346735 0.26676327 0.0695037 -0.024097707
-0.067795746 0.26899183 0.31440446 0.21244599 -0.013512252 -0.0127984695 0.184352 0.21788403
0.12360879 0.024142366 0.08621741 0.1726738 0.16827169 0.03954168 -0.0022193536 0.06325731
0.022782382 -0.031992663 -0.032834627 -0.092714876 -0.23323636 -0.09201433 -0.15520264 -0.25071844
-0.23562758 -0.22978498 -0.1671673 -0.09516532 -0.098605596 -0.31594658 -0.20669587 -0.20700711
-0.20199156 -0.23981515 -0.2501114 -0.010113808 -0.026283925 -0.18827157 -0.043301422 -0.21063548
-0.23655224 -0.10607484 -0.15885621 -0.1963363 0.024633085 0.12308508 0.023513647 0.05301148
-0.027877275 -0.00040296663 0.1263957 0.007651196 0.07015854 -0.051064175 -0.070801176 0.13041021
0.21383114 0.106012985 -0.14737713 0.0372343 0.2730474 0.047328845 0.21267872 -0.04188271
-0.18266328 -0.030801756 -0.01797486 -0.12828772 -0.18265101 0.09901523 0.12562673 0.22349928
0.25273094 0.12065288 0.12016105 0.3289023 0.26630983 0.20046915 0.024122786 0.15909271
0.25054258 0.12959795 0.25048 0.031526573 0.21925253 0.18158923 0.16699433 0.3422114
-0.029896015 -0.16512948 0.15209143 0.11426432 0.17368656 -0.020462198 -0.12447606 0.15921956
-0.017167103 0.17367867 -0.1342312 -0.11387409 0.15384436 -0.1940869 0.20593688 -0.19873452
-0.050820142 0.55505806 -0.66492236 -0.012866632 0.076586455 0.19971038 0.51129836 -1.0441414
0.08869101 0.41131356 -0.06178721 0.1357503 -0.5835205 0.11321021 0.10482513 0.022601603
-0.00204915 -0.062387027 -0.077949844 -0.07293082 0.1356888 0.1390688 -0.358731 0.026097832
-0.015530472 0.06987688 0.4743999 -0.9213432 -0.001783631 0.16025265 0.4446218 0.4915702
-1.063409 -0.0030676099 0.45592886 0.13684964 0.16105543 -0.71181464 0.17903703 0.017431293
-0.1315637 -0.12388673 -0.02745805 0.06724043 -0.109764166 -0.03836016 0.21393423 -0.13696837
0.14648825 -0.041267414 -0.05597632 0.27756804 -0.660977 0.07640376 0.21320853 0.1547033
0.45266643 -0.9908243 0.01909244 0.43716034 0.021343352 0.25839764 -0.57946247 0.1040964
0.13628918 0.37644318 0.3349154 0.457075 0.38986447 0.28920817 0.1333425 0.2829311
0.32571143 0.40501603 0.31592727 0.04805262 -0.028127573 0.22628395 0.07504063 0.047445066
-0.06875523 -0.20529321 -0.21289276 -0.07164792 0.033657208 -0.20244463 -0.4597853 -0.46238694
-0.43386072 -0.31364727 -0.17998132 -0.11516272 -0.06796952 0.06526892 0.03989352 -0.4852268

conv1.bias f4 [6]
00000000: 7e12 51be 78f2 abbd d4e5 cbbe 87f7 65bf
00000010: 1248 53bf 8772 21bf
-0.2041721 -0.083958566 -0.39823782 -0.8983082 -0.82531846 -0.6306538

conv2.weight f4 [16, 6, 5, 5]
00000000: 2f31 743d 7b7d 77bd 308a 59be ea82 7abe
00000010: 7120 263d 517b 883e 8b73 8b3e 18d0 7cbe
00000020: 9d65 90be 181d 3abe d6ae 813e 7390 bf3e
00000030: 2813 fdbd 260c 85be 0863 33be 25b2 753e
00000040: abcb 533e f465 a8bc b8c8 1abe dfd1 3dbe
00000050: f1f0 963b baed cc3d 93f7 963d 06b8 00be
00000060: b820 64be 6e8c dc3d ee51 30bd fe38 6bbe
00000070: 2325 64be 8484 cebd 8fcc 353e 6afc a63d
00000080: 32f0 06be 2eb9 91be 155e 39be e433 663e
00000090: 671d ec3d a059 a8bd 6ceb 0abe ede5 8abe
000000a0: ce09 373e bd4c 6c3e 1bfe 523d 5a27 efbd
000000b0: 3665 a1bd 4df0 493e 735d a63d d6eb 7b3d
000000c0: fd66 403d 9ad3 f6bd 7c9a 46be 4bc1 10be
000000d0: 8782 b83d f4f0 1b3e 12a7 e6bc 59bd 30be
000000e0: 99d5 d8be ef93 943a 532e 813e f335 b6bc
000000f0: 4458 64be 9332 64be b631 88bd 248e 053e
00000100: 8a23 ba3d 4c7b 6abe 33a7 acbd 7cce 023d
00000110: 2055 4c3d 0126 bf3d 424b 56be 6031 743d
00000120: 79b1 3ebd d35b d63d f86d 833e f5c9 c23d
00000130: a967 38be 09ef 06be c75f 2c3e d822 a93e
00000140: 220f 8dbd f740 13be 4141 56be 01a1 893d
00000150: 1036 843e d6c8 9a3c a899 a0bd a916 2ebe
00000160: b21e d53c 370c a13d 3224 07bd 3548 f6bb
00000170: 8864 9b3a 7e2e 0fbe 5775 8e3d c32e 8dbd
00000180: ab25 b0bd ecf7 043d e007 01bd 83ff a7bc
00000190: 019d 853d d96d 9d3d 0de5 06be 7aeb e5bd
000001a0: 7c38 fcbd 91b3 793e 6232 183e e4cd 5c3d
000001b0: 9c19 38be 8eba 48be 7fec 67bc 3019 6bbd
000001c0: 7fb5 79bd 1d0e 8dbe 1385 44be 1af9 21bd
000001d0: 0816 acbd c372 33bd 63ee b1bd 264e ecbd
000001e0: cd8c 6fbe d030 0dbe 01bc 07be 89aa 16be
000001f0: d37f 52be a20e dd3c 795c 5ebc 5f9b c7bd
00000200: 3f08 273e 7446 b23e 359f 153e 5e2f 16bd
00000210: e52d 47be ac38 963d 9939 3d3e 6f4f aa3d
00000220: c26f eebd 51ef 27be f69a acbd 9641 1a3d
00000230: 498a 6ebd 9453 efbc a817 43be a34a bbbb
00000240: b78c bdbd e5fc 50bd ea62 223d 6eac 12bd
00000250: 013c 8b3d c716 8abd ac90 a7bd 4231 82bd
00000260: 322b 19be 7c1b 4cbd ca9f e7bd 6751 52bd
00000270: c835 95bd f783 c3bd 94f0 86bd a078 053d
00000280: befb fdbd e00c 8cbd c168 4ebc 3e19 04bc
00000290: 67cc b63b 941c 03bd 6969 32be d1fa 69be
000002a0: d63b debc 2f44 31be de08 4abc 014d 14be
000002b0: 03b9 62be 3b0b 62be 2572 55be a04c 373e
000002c0: 046e 193d fbf3 923d 93ac cbbd a198 14be
000002d0: 2975 383e f463 46bc 788f d23d afd0 19be
000002e0: 9308 e2bd 4625 fb3d e4cb 133d 17aa 00bd
000002f0: b84f aabd 7e47 91bd 447f 273e d2c0 76bd
00000300: a145 0bbe 1884 48be cf83 b0bd 2b14 863e
00000310: 83c2 d13d cad6 a0bc 86f7 5fbe a7e6 abbe
00000320: 7783 00bd caed 39be 6342 4ebe 2219 ab3d
00000330: 6ae4 d53c f7c3 e4bd 3d6b 0e3b c056 b63d
00000340: bc8b 42be 8c76 46bd adef 3d3e aef3 573d
00000350: 82c3 133e fcf3 a2bd 1e83 5bbd ac08 ac3d
00000360: aadb c23d 161e 87be a806 7f3e be84 26bd
00000370: 36a2 f03d 3ed0 a7bb 2211 5d3e 4c8c 20be
00000380: 556f 433b 641d 783d f84d d23d 95b5 d13b
00000390: 4055 913d f9ac 8a3d e836 debd 1996 873e
000003a0: 2ba3 723e 8930 05be 3322 7abc 0a00 85be
000003b0: 0bfd ad3d 0fd0 563e fc60 693e 4a8f 2cbe
000003c0: c951 34be 683f 4fbe 81bf 013d 8e3b a93e
000003d0: 683e 6b3e 220b c3bd 2d31 abbd b875 d9bd
000003e0: 5c02 60bd 8c41 a93d 41e6 31bd 37b0 933d
000003f0: f5dd ca3d f3dc 0e3b df42 eebb 225e 16be
0.059617218 -0.060422402 -0.2124412 -0.24464002 0.040558282 0.26656583 0.2723659 -0.24688756
-0.28202525 -0.18175161 0.25328702 0.37414894 -0.123571694 -0.2598583 -0.17518246 0.23993738
0.20683162 -0.020556428 -0.1511563 -0.1853709 0.004606359 0.1000628 0.0737144 -0.125702
-0.22278106 0.10768972 -0.043046884 -0.2297096 -0.22279792 -0.10083869 0.17753814 0.08153613
-0.13177565 -0.28461593 -0.18102296 0.22480732 0.115290456 -0.082202196 -0.13566369 -0.27128544
0.17874834 0.23076148 0.051511865 -0.116774276 -0.078806326 0.19720574 0.08123293 0.061504208
0.046973217 -0.120520785 -0.19394869 -0.14136235 0.09009271 0.15228635 -0.028155837 -0.1725973
-0.42350462 0.0011335592 0.25230655 -0.022242522 -0.22299296 -0.22284918 -0.066501066 0.13042504
0.0908881 -0.22898597 -0.08430328 0.0319352 0.04988587 0.093334205 -0.20927146 0.0596174
-0.04655597 0.10466733 0.25669837 0.095111765 -0.18008293 -0.13177122 0.16833411 0.33034396
-0.06887652 -0.14380251 -0.2092333 0.06720162 0.25822496 0.018894594 -0.078418076 -0.17000832
0.026015613 0.07863658 -0.032993503 -0.007515932 0.0011855522 -0.13982579 0.069559745 -0.06893685
-0.086009346 0.032463 -0.03150165 -0.02050758 0.06524087 0.076869674 -0.13173313 -0.11226554
-0.12315461 0.24384905 0.1486297 0.05390729 -0.17978519 -0.19602415 -0.014155506 -0.057397068
-0.060964104 -0.2754983 -0.19191389 -0.039544202 -0.084026396 -0.043810617 -0.08688047 -0.11538343
-0.23393555 -0.13788152 -0.13255312 -0.14713491 -0.20556574 0.026984517 -0.013571852 -0.097464316
0.1631174 0.34819376 0.14611514 -0.036666267 -0.19451101 0.07335028 0.18479003 0.08315932
-0.1164241 -0.16399886 -0.08427994 0.037660204 -0.058237348 -0.029214658 -0.19051993 -0.0057156845
-0.09255355 -0.05102243 0.039645113 -0.035808973 0.06798554 -0.06742626 -0.08181891 -0.063570514
-0.14957884 -0.0498309 -0.11309774 -0.051347163 -0.072856486 -0.09546655 -0.065888554 0.03258574
-0.12401532 -0.06838393 -0.012598217 -0.008062659 0.005578566 -0.032009676 -0.17423023 -0.22849585
-0.027128141 -0.17311166 -0.012331216 -0.144825 -0.22140889 -0.22074597 -0.20844324 0.17900324
0.037458435 0.07175442 -0.09945025 -0.14511348 0.18013443 -0.012108792 0.10281271 -0.15021013
-0.11036792 0.12262969 0.036083117 -0.03141221 -0.083159864 -0.07093714 0.16357142 -0.06024248
-0.1360078 -0.1958164 -0.086188905 0.26187262 0.10242178 -0.01963367 -0.21871766 -0.3357441
-0.031375375 -0.18157116 -0.20142512 0.08354403 0.026109893 -0.1117019 0.00217314 0.08903265
-0.18998617 -0.0484529 0.1854846 0.052722625 0.14430049 -0.079566926 -0.05359184 0.084000915
0.09514554 -0.2639014 0.24904883 -0.040653937 0.11749689 -0.00512126 0.21588567 -0.15678519
0.0029820998 0.060574904 0.102687776 0.00639982 0.07096338 0.06771273 -0.10850316 0.26481703
0.23695056 -0.13006796 -0.015266943 -0.25976592 0.0849553 0.20977806 0.22790903 -0.16851535
-0.17609324 -0.20239031 0.031676773 0.3305325 0.22973025 -0.09523608 -0.08358989 -0.10618156
-0.05468975 0.08264455 -0.043432478 0.07211345 0.09905616 0.0021799176 -0.0072711552 -0.14684346

conv2.bias f4 [16]
00000000: 8ddb 7a3d 24f4 0ebf 72ae 3fbf 5e13 743e
00000010: 6a5c d23e d207 29bf 2892 39be 0a71 153e
00000020: d54b 913f 3849 c53d 3253 7e3d 7e65 eebe
00000030: 4ac9 933e 7d7e 5a3f 78a5 6dbf 0c61 013e
0.061244536 -0.5584128 -0.7487556 0.23835513 0.4108613 -0.6602756 -0.1812216 0.14593902
1.1351267 0.09633106 0.06209106 -0.46561807 0.2886451 0.85349256 -0.9283061 0.12634677

fc1.weight f4 [120, 400]
00000000: f74e a4bd a760 80bd face 26bd ba12 bdbd
00000010: 39bf 74bd 9228 debd d935 b3bd 0584 c4bc
00000020: 4ef0 6fbd aa15 103c f3f6 68bd 06c7 b93a
00000030: 5d36 fcbc 369f bf3b 2c4c a53c 5aec 8bbd
00000040: 9490 d7bd e27e 78bd 9236 b5bc b324 56bd
00000050: dcb3 e9bd 4316 30bd 6d00 b2bd 2c3a ddbc
00000060: 66b5 d43c 55c4 4a3b bc9d 5bbd 85c6 bebc
00000070: ab7b fabb eb04 813c 8c02 b93d 73a1 26bd
00000080: 3b21 9bbd f6c7 673d 2f2d 333d 9d85 403d
00000090: 8f44 a33d 00e3 123c a367 7ebd ea44 cebc
000000a0: 2682 e236 fd3b 943c 6ece d23d 25b6 6e3d
000000b0: e130 0f3c 9e0c 013e d07f c03d 31bd 863d
000000c0: 2dcc 8d3c 5bd6 bd3c a130 9dbd 6fd3 8abd
000000d0: d494 c5bd ad1b ddbd 5a98 d3bd 3caa 97bd
000000e0: 8ed8 5cbd 8ded dbbd 12e0 77bd da97 00be
000000f0: 7231 8ebd 601f 163c 3b76 6bbc e39f 6abd
00000100: 970d edbd 1aac d7bc 4d74 08bd 6442 a3bd
00000110: 93c2 aebc 3bf8 73bc 7409 41bd 03f9 623d
00000120: 46dd e73c 90f2 0fbd 5093 37bc 10a2 96bd
00000130: 0241 26bd 6b0e 1dbd f531 afbd 97a0 8cbd
00000140: a2a5 2f3c 5d53 a5bb 4082 52bd 9ee0 ee3c
00000150: d7a2 c1bd f74a b3ba 3b5f cdbc a17e 82bd
00000160: 1f17 553c 9770 43bd 5009 99bd 2f45 7ebc
00000170: 364b 86bd 266c cabc 9013 663b c964 95bd
00000180: 748d 8dbd 2a56 23bb 1383 a5bd 51d2 6bbc
00000190: a74e a4bd 14e1 2abd 1b63 7abd 16bc c4bc
000001a0: 2cfb e5bd 247b 53bd dc79 6e3d f8d4 d0bb
000001b0: 8130 62bc 86bd 0abd 9e9c dabc 9c20 0d3c
000001c0: 0b79 7d3d 74c7 c6bc bdcb e8bc cb27 cb3c
000001d0: 3cb0 223b ebd5 0d3d faef d1bc 286d 5cbc
000001e0: 5bac d6bc 4ec5 e73b 98e5 f9bb 3dda 14bc
000001f0: bec1 95bc a3a7 82bc 011d 53bd 4cca 7cbc
00000200: 0260 98bd c888 b2ba 9555 303b 5105 a23a
00000210: 6bc3 77bb b2c7 41bc 222d e9bc 8f86 9bbd
00000220: 0f75 903d e8b4 e53d cc82 b83d c1ff 853c
00000230: 782f 14bd ac74 0a3d 44a3 7d3d d86d 353d
00000240: 8bdb 48bd bf9b 0dbd bf15 bbbc 9bf7 753d
00000250: c201 533d 41ff 20bc 7a6c c53c 3480 85bc
00000260: e9ab 5cbc cbc4 b5bd 5b74 0d3b 3522 72bd
00000270: 3644 50bd 2689 29bd ee7b 103d 491f 8f3c
00000280: 56d9 d93c 2052 26bd eac1 9abb e208 31bd
00000290: 4ed6 873d 34fc 0dbd 7fdc 573c a9fb 493d
000002a0: 726f a8bd 7f75 a0bd a47d 19bd 9fec 563d
000002b0: e950 3cbd 8a80 dbbd 1eab a8bd d87f bebc
000002c0: e824 b53c ba82 fa3c 946b 07bd 8eb0 0b3d
000002d0: 34fc a0bd 6514 85bd 73ea afbb 1625 d0bd
000002e0: 34e0 a2ba dbfa aabd 1640 4cbd a9e3 9abc
000002f0: a3fc b5bd aa74 9cbd d4de 99bc f22b f1bc
00000300: d09f 16bd 1a0c 28bd 3137 e5bb 19aa 48bd
00000310: 7171 adbc 9007 d0bc 6a10 ac3c 30bd f6bc
00000320: ce3b bfbc 1096 8b39 920c 373d c1eb 043d
00000330: 9957 7f3d d7c7 bcbc fd06 77bd 7fc0 c23c
00000340: 6037 fbba de6d b23d aaeb 35bd 3b62 70bd
00000350: e6e0 9c3d 6eeb c03d 9c82 a23d 1f09 a33c
00000360: ec3b 31bd c885 5fbd 4ef5 63bd 3cee 9f3d
00000370: 748f da3c dea8 7fba bb0e 673d 78ea 70bc
00000380: a4bd 9f3d d5da c8bc b3f0 8ebd e3c1 1dbd
00000390: eac6 9abd 00ff cdbd 91fe 95bd a266 9ebd
000003a0: 379a a5bd 68fa 95bd bdd6 cabb c458 82bc
000003b0: be33 1abd 4700 d2bb 46ad 2abd ce71 e7bc
000003c0: 0272 a43c 6d4b de3c 90bc 9ebd a5f1 39bd
000003d0: 227c b3bd aa2e 8bbd a695 a2bd 3b81 b2bc
000003e0: 9b80 53bd c514 3dbd 7599 d23c c215 59bd
000003f0: 2c55 58bd 2671 3cbd fd67 c7bd 5441 cd3c
-0.08022874 -0.06268435 -0.040724732 -0.092320874 -0.059752677 -0.10847582 -0.08750505 -0.023988733
-0.05857878 0.008794228 -0.056876134 0.0014173693 -0.030787641 0.005847837 0.020177923 -0.0683219
-0.10525623 -0.06066788 -0.022120748 -0.052281093 -0.114112586 -0.04298998 -0.086914875 -0.027005278
0.025965404 0.0030939777 -0.053617224 -0.02328802 -0.007644137 0.015749415 0.09033689 -0.040681314
-0.075746976 0.056587182 0.043744262 0.047002424 0.07972061 0.008965254 -0.062110554 -0.025179345
6.750476e-06 0.01809501 0.102932796 0.058279175 0.008739681 0.1260247 0.09399378 0.06579054
0.017309273 0.023173502 -0.07675291 -0.06778609 -0.09647527 -0.10796294 -0.10331793 -0.074055165
-0.05391746 -0.107386686 -0.060516424 -0.12557927 -0.06943025 0.009162754 -0.01437145 -0.057281386
-0.11574858 -0.026327182 -0.033314038 -0.079716474 -0.021333015 -0.014890726 -0.047128156 0.055413257
0.028303754 -0.035143435 -0.011204556 -0.0735513 -0.04058934 -0.03834383 -0.085544504 -0.068665676
0.010720642 -0.005045338 -0.051393747 0.02915984 -0.09454887 -0.0013678957 -0.025069823 -0.06371809
0.013006001 -0.047714796 -0.07472479 -0.015519424 -0.06557314 -0.024709772 0.0035106875 -0.07294614
-0.06911746 -0.0024923184 -0.08081641 -0.014393405 -0.08022814 -0.041718557 -0.06112967 -0.024015468
-0.11229548 -0.051631108 0.058221683 -0.006373044 -0.01380551 -0.03387215 -0.026686009 0.008613732
0.061883014 -0.024265029 -0.028417462 0.024799248 0.0024824282 0.034627836 -0.025627125 -0.013453759
-0.026205232 0.007073081 -0.0076262467 -0.009085235 -0.01828086 -0.015949076 -0.051541332 -0.015429091
-0.07440187 -0.0013621086 0.002690648 0.0012361204 -0.0037805687 -0.011827396 -0.028463904 -0.075940244
0.07053577 0.11216146 0.090093225 0.016357305 -0.036178082 0.033802673 0.06192328 0.04429421
-0.049037497 -0.03457236 -0.022837518 0.060050588 0.05151535 -0.009826482 0.024099577 -0.016296484
-0.013468721 -0.08875426 0.0021584246 -0.059114654 -0.0508463 -0.04139056 0.03527444 0.017470973
0.026592892 -0.040605664 -0.0047228234 -0.043221362 0.06632672 -0.034664348 0.013175129 0.049312267
-0.082243815 -0.078349106 -0.037473336 0.052471753 -0.0459756 -0.10717876 -0.08235763 -0.02325432
0.022112325 0.030579913 -0.03306158 0.034103923 -0.07860604 -0.064980306 -0.0053685247 -0.101633236
-0.0012426437 -0.08348628 -0.049865805 -0.018907385 -0.08886077 -0.076394394 -0.01878301 -0.0294399
-0.036773503 -0.041027166 -0.0069951047 -0.048990343 -0.021172257 -0.025394231 0.02100392 -0.030119509
-0.023343947 0.0002662395 0.044689722 0.032451395 0.0623394 -0.02304451 -0.0603094 0.02377343
-0.0019166283 0.08712362 -0.0444142 -0.05868743 0.076600835 0.09419905 0.07935068 0.01990181
-0.043270037 -0.054570943 -0.055653863 0.078091115 0.026679732 -0.0009752641 0.056410532 -0.014704339
0.07799843 -0.02451841 -0.069795035 -0.038514983 -0.07557471 -0.10058403 -0.07323945 -0.077344194
-0.08086055 -0.07323152 -0.0061901496 -0.015911467 -0.037647 -0.0064087245 -0.041669153 -0.028252508
0.020073894 0.027135575 -0.07750809 -0.045396466 -0.08763911 -0.0679601 -0.079386994 -0.021790138
-0.05163632 -0.046162385 0.02570794 -0.052999265 -0.0528156 -0.046006344 -0.09736631 0.025055565

fc1.bias f4 [120]
00000000: 19c0 bf3d faa2 193e 063a 1fbd 803d 1dbd
00000010: 1747 83bc 066d 29be 4834 913b 5bec 873c
00000020: 3d15 033e aa87 ae3d 4488 6b3e 7ec1 cdbd
00000030: 250b 8dbc 43ec 723d 99e6 fabb ea43 93bc
00000040: bef0 c2be b80d a8bd a1f4 d2bd 173e b6bd
00000050: 279c 9b3c 8e73 a1bd c20f 68bc fc80 503d
00000060: 78fe 61bb 672e 00be 59d7 9c3d 180a babd
00000070: fecf 0bbd c6e6 f83d d348 a83e fbea 443d
00000080: 146f 0f3d 92a5 8a3e 603f 44bd be1f 853d
00000090: 4ba2 c43d 4c7f 993d 7a80 aa3e a8c5 dc3a
000000a0: 8573 1b3d 5d90 833d c6d2 10bb 0468 0ebd
000000b0: c59a de3d 520d b33d e786 17bd f43d 993e
000000c0: e6ce a73c 3989 24bc 52e8 b73d 3880 39bd
000000d0: ba13 843d 2051 f83c 844c 04be a4d9 4fbe
000000e0: f4a3 013e bd80 603a 340f d2bc e49e 93bc
000000f0: 33b5 993d 31be f33c 0480 c9bd 1939 62be
00000100: be04 f63d 5ce6 8b3d d755 6c3d f022 e63d
00000110: 09f1 21be e389 27bd cdef 92bd 2f63 efbc
00000120: e7f5 afbc e25f 323d 8c87 3abd 2145 85bd
00000130: 0b1f 3d3e 481a 41be 8005 913c 43f0 8a3d
00000140: 620a a0bc 7aa4 d3bc e91f 813d d1ff 51bd
00000150: 9b2e e33c 227e 08bd 0c6f e6bc 59f8 883d
00000160: 37b5 02bd f9ef b63c b1ba b83d 6785 113d
00000170: d548 343d 4a04 f5bc fb0c 313e 78d0 3b3c
00000180: fd36 3e3e 28b8 0a3d 0740 e8bc 6d63 c1bc
00000190: 06f1 373e e692 a73c 5d2a 673d 70ba 2e3d
000001a0: 0e51 8d3c 4526 843e 9635 88bc fed1 aa3d
000001b0: 25df b43d 2d8e 96bc 18d4 923d 091b 6dbd
000001c0: 00a0 04bb 8656 d03c 1b3b 173d 1e93 f0bc
000001d0: 324b d33d 6da1 86bd 2b39 2ebd d66a 933c
0.093628116 0.15003577 -0.038873695 -0.03838873 -0.01602511 -0.16545495 0.0044312812 0.016592195
0.1280107 0.085219696 0.230012 -0.10046671 -0.017217228 0.059307348 -0.007656884 -0.01797672
-0.38074297 -0.08205742 -0.103005655 -0.088985614 0.018995358 -0.078833684 -0.014163913 0.05090426
-0.003448395 -0.12517701 0.07658262 -0.090839565 -0.034133904 0.121533915 0.3286806 0.048075657
0.03501804 0.27079445 -0.047912 0.06500195 0.096012674 0.07494983 0.33301145 0.0016843574
0.037951965 0.064240195 -0.0022098287 -0.034767166 0.10869364 0.08742775 -0.036993887 0.2993008
0.020484399 -0.010042482 0.089798585 -0.045288295 0.06449075 0.03031212 -0.12919813 -0.20297867
0.126602 0.00085641054 -0.025642015 -0.0180201 0.07505264 0.029753776 -0.0983887 -0.22092094
0.12012623 0.06831047 0.05769905 0.112371325 -0.15814604 -0.040902983 -0.071746446 -0.0292221
-0.02147956 0.043548472 -0.045539424 -0.06507326 0.18468873 -0.18857682 0.017702818 0.067841075
-0.0195362 -0.025835264 0.063049145 -0.051269356 0.027732184 -0.033323415 -0.028129123 0.066879936
-0.0319111 0.022331225 0.090199836 0.035527613 0.04401477 -0.029909272 0.17290108 0.011463277
0.18575664 0.03386703 -0.028350843 -0.02360698 0.17963037 0.020455789 0.056436885 0.04265827
0.017250564 0.25810447 -0.016627114 0.08340834 0.08831624 -0.018378342 0.0716936 -0.05788711
-0.002023697 0.025431883 0.0369216 -0.029367026 0.10317077 -0.06573758 -0.04253499 0.01799528

fc2.weight f4 [84, 120]
00000000: 5698 b5bd 1b94 0fbd 13c8 233d 8f9a 2d3c
00000010: fa59 bcbd 8aa6 2f3d 9c0f 873d 2ca9 263d
00000020: 0a1c a3bd c235 adbd 0e5f 6e3d 18ea 1dbe
00000030: 3f19 bf3d 88d0 313d a643 1b3d b00c 65bb
00000040: 4a58 74bd 15c2 cabc 49c1 8fbd 06fe c0bd
00000050: 24f0 1d3e ba37 afbd e5f3 8cbc 7b23 b9bc
00000060: 42db 8bbc 6e45 ccbd a062 0cbd c4fb 93bc
00000070: 0fd4 56bc e245 f83d d19c 02be fa9a 0ebc
00000080: abe6 873d 9342 b33c ecd8 95bd 816d 153c
00000090: a380 85bc 497d 0bbe 9e18 673d 239c b8bc
000000a0: d27a a43c 7890 f8bc a4cd 9cbd d948 813d
000000b0: e069 063e 82be b8bd 5195 94bd 1a27 703d
000000c0: 7c52 34be 56c9 cabd 07f9 e4bc bceb 7abd
000000d0: c7ba d43c ac53 853d 93b3 65bd 4bad 0c3d
000000e0: d591 1fbe 00ac 1d3c 5abd e03c de36 e63c
000000f0: 200b bdbd 00a5 10bd 80f2 97bd ae4a d3bd
00000100: 1181 75bd 3241 e23c 1f5b ae3b 5fce d8bb
00000110: 3d8a b2bd d62d 5c3a 5f3e 5dbd d6b2 ad3c
00000120: 8694 db3b 099c e23d cff4 6b3d 8fd5 463d
00000130: e508 773d 49c4 d8bd 1fcc 2dbd 9dfd 823b
00000140: bd35 d23b 6589 ecbb 8513 933c 8d33 94bd
00000150: 593e 1c3e 4a57 1b3c 68fc a83d 868c 54bd
00000160: 9f2b c43d 5d58 1ebe c0f2 a13d 57d4 4cbd
00000170: 2016 ca3d 0a2a e13d 54da 8ebd 706e fdbb
00000180: 6b5a 193e bcfd 8dbd 3fec 833d 52d5 f63c
00000190: 89a9 aebd cc9d b33d 5c02 e9bd 8e8f c53c
000001a0: fe11 2d3d 8845 913d 171d ae3d 6300 b0bd
000001b0: 86e7 17bb 3b92 0b3d 0450 c3bd 43d7 d8bc
000001c0: 58de b43d f0f2 5d3d c6cb 3fbd 85e0 9fbd
000001d0: df2c 26bd 8f65 d93c 2b29 103e fc25 753d
000001e0: 994e a0bc edd7 9cbd b129 c6bd b74e 123e
000001f0: 6f2a 353c a773 47bd 5cfb 19be 37be dcbd
00000200: e46a 6cbc 6dd3 01bc abef 30bd 30f2 003d
00000210: 62f3 f53c 8b58 c53b 7c7a bcbd 8b4f 38bd
00000220: 7e0e 3fbe df15 26bc 9b90 62bb c8e8 85bd
00000230: 6965 eabd 9652 6fbc 6d5f b83d efc9 d23c
00000240: 226a 1fbb 531c 2d3d fc47 1b3d b0d3 a0bd
00000250: 5ba3 9f3d 3a8f 013e ca03 873d ca2d be3b
00000260: d07c e63c 399b a4bc 6ad8 f23d 9d24 c5bd
00000270: 0111 cb3d c495 cfbc 0e30 873d 5b60 4f3d
00000280: 6b99 183c 0038 0fbe 0ec7 85bd 9eb4 803c
00000290: 082b 9b3d 8f5d 59bc d4fd 9b3c 5898 3bbd
000002a0: 6667 003e 55d2 073e 6a08 2d3c 7295 623c
000002b0: f03e 02be 8c13 bfbd b2c4 abba 4cc0 00be
000002c0: 8ccb 8d3d 56b8 84bd 2bf6 e63b 7869 e7bd
000002d0: 26af 29bc 897c e0bd 035f 0b3d 9365 60be
000002e0: 43c7 4b3b ef14 a7bd 921c ae3d efac bcbd
000002f0: 2483 81bd eea4 bebb a99e 9a3d 5006 96bd
00000300: 1188 343d f008 0f3e f9c8 853d f029 173d
00000310: 7049 1ebd 36f4 f33c f7c2 09bd 8e13 9f3b
00000320: 56ef 88bd f548 34be b513 843c 21be 113d
00000330: 3d41 dbbd 9aec 70bd 5f17 a33d e957 c33d
00000340: f5b0 873d dabc b4bd a87b d73c b3d1 71bc
00000350: 6b1d 793c c678 94bd 856d 383d ee83 203d
00000360: 25a0 d03a b093 df3c 6330 d2bd 9887 67bd
00000370: fa4d 58bd 7454 133c 1184 423d ea46 a63c
00000380: 988e db3c ce9a f4bd 0098 57bd 73ba 94bd
00000390: d256 743d 8da9 36bd e649 dcbc 76b7 c73d
000003a0: 1de4 9a3c bd3c cfbd bd7f 983c fb30 4bbb
000003b0: 2bf0 a5bc cf5d 853d d2bb d7bc 9ab6 193c
000003c0: f76e 8cbb 080b 363d 9eb2 bebd 0945 873d
000003d0: 0fb9 a1bd 2402 98bc 5042 f73b 11a3 2f3d
000003e0: 0534 db3d 3cc8 193d e53b f8bc bd70 953d
000003f0: cad0 ea3d 904e c2bd f4f9 a6bc e238 e03a
-0.088669464 -0.035053354 0.039985728 0.010595932 -0.09196849 0.042883433 0.06594774 0.04068868
-0.079643324 -0.08457519 0.05819612 -0.15421331 0.09330987 0.04341176 0.03790631 -0.003495019
-0.05965451 -0.024750749 -0.07019288 -0.09423451 0.15423638 -0.08555551 -0.017206142 -0.022599926
-0.017072324 -0.0997418 -0.034273744 -0.018064387 -0.013112082 0.12122704 -0.12755133 -0.0087039415
0.06635793 0.021882331 -0.07316765 0.009120346 -0.01629669 -0.13622011 0.05641996 -0.02253539
0.020078097 -0.030342326 -0.0765641 0.06312723 0.13126326 -0.090207115 -0.07255042 0.05863104
-0.1760959 -0.09901683 -0.027950777 -0.06125997 0.025967969 0.065101 -0.05607946 0.034344953
-0.15582974 0.0096235275 0.02743404 0.028102335 -0.092306376 -0.035313606 -0.074193 -0.103169784
-0.05993754 0.027618978 0.005320921 -0.006616398 -0.08717773 0.0008399164 -0.05401456 0.02120344
0.006701055 0.110649176 0.057606515 0.04854351 0.060311217 -0.105843134 -0.042430993 0.003997518
0.0064150975 -0.007218527 0.017953644 -0.07236395 0.15258159 0.009481261 0.08251268 -0.051891826
0.095786326 -0.15463395 0.07907629 -0.05000719 0.09867501 0.109943464 -0.069752365 -0.0077341124
0.14975898 -0.069331616 0.06441545 0.030131016 -0.0852843 0.08770332 -0.11377403 0.024116304
0.042253487 0.0709334 0.08501642 -0.08593824 -0.002317877 0.034075003 -0.09536746 -0.026469832
0.08831471 0.05418676 -0.046825193 -0.078064956 -0.040570136 0.026537685 0.14078204 0.059850678
-0.019568728 -0.07658372 -0.09675921 0.1428784 0.01105748 -0.04869428 -0.15037292 -0.10778468
-0.014429782 -0.007923943 -0.043197315 0.031480968 0.03002328 0.006022518 -0.092030495 -0.044997733
-0.18657872 -0.01013705 -0.0034571055 -0.0653854 -0.11445124 -0.014607092 0.09002576 0.025731055
-0.0024324735 0.04226334 0.037910447 -0.07852876 0.077948295 0.12652293 0.065925196 0.0058037983
0.028135687 -0.020093547 0.11857684 -0.09626124 0.099153526 -0.025339969 0.066009626 0.050629
0.009313921 -0.13986206 -0.06532107 0.015711125 0.07576567 -0.013266935 0.019041933 -0.045799583
0.12539443 0.13263829 0.010561088 0.013829576 -0.12719321 -0.093299 -0.0013104884 -0.12573355
0.06923589 -0.06480472 0.0070483885 -0.112994134 -0.0103567 -0.10961253 0.034026157 -0.21913747
0.003109411 -0.0815829 0.08501543 -0.09212672 -0.06323841 -0.005818001 0.07549793 -0.07325423
0.044075076 0.13968253 0.06532473 0.03690523 -0.038644254 0.029779535 -0.0336332 0.004854626
-0.06686275 -0.17605956 0.016122678 0.03558171 -0.107058026 -0.05881939 0.07963442 0.09538252
0.06625549 -0.08825083 0.026304081 -0.014759469 0.015204768 -0.07249598 0.04502632 0.039188318
0.0015916867 0.027292103 -0.10263135 -0.056525797 -0.05280874 0.008992303 0.04748923 0.020297486
0.026801392 -0.11943589 -0.052635193 -0.07262125 0.05965311 -0.04459529 -0.026890706 0.09751789
0.018907601 -0.10119007 0.018615598 -0.0031004536 -0.020256123 0.06512033 -0.026334677 0.0093819145
-0.004285689 0.044444114 -0.09311412 0.06604964 -0.07896625 -0.018555708 0.007545747 0.04288012
0.10703281 0.037544474 -0.030301997 0.07296894 0.114656046 -0.09487641 -0.020382859 0.0017106796

fc2.bias f4 [84]
00000000: 4ced 873d 44c1 223e e293 f9bc 648c a2bc
00000010: c118 f13d 20d1 89bd 1c21 433f aff5 f93e
00000020: 767c 513c c63e f7ba 9222 993e d846 cebd
00000030: 1599 963c 0108 763d c9fb cdbd 52c8 103d
00000040: 1927 afbc acbe 013f 2cb9 113f 4fb9 a73e
00000050: 09ab 4f3d a490 32bd 7fdb 81bd 0347 16bd
00000060: 58fe 2abe 8b01 89bd 22b4 96bd 0280 6e3e
00000070: dfb2 163e a077 28bd 3e74 d03c 505c 5ebd
00000080: afee e53c 5cc8 5f3e c081 bb3d 20b5 9a3e
00000090: 7c6f 7b3d 6b5a 543e 80b2 bf3d a5bb d93e
000000a0: d08e 1d3e 4aee bd3c 52b4 debe fd66 2d3d
000000b0: fc9f a73d ccad 013e 168c 2e3d 0e15 aa3d
000000c0: 50de 623e b0f7 d23d 7910 933d 9862 283e
000000d0: ab61 32bd b731 ca3d 603b a1bd 3eaf 8abd
000000e0: 5bcf 81bd d68e 65bd d060 f63e f203 aebd
000000f0: 326f 3b3c 4a33 6cbc ea87 b6bd 54fe 9c3e
00000100: d6e8 753e 8f96 7e3d d5d5 a93d 6d76 bdbd
00000110: bde0 6bbd ae50 e53d 8f0d 053e e447 f1bc
00000120: 7de2 cb3c cb1b bb3b 9253 99bc 3140 f1bd
00000130: 472e 48bd 9135 f13d 78b1 0fbd 6f4d 293e
00000140: 1251 2b3c 16f5 3c3d 0ecc b3bd a44c 49be
0.06637058 0.15894037 -0.030466024 -0.019842334 0.117722996 -0.067293406 0.76222396 0.48820254
0.012786021 -0.0018863312 0.29909188 -0.10072106 0.018383542 0.060066227 -0.1005779 0.03534729
-0.021380948 0.5068157 0.56923175 0.32758567 0.05070022 -0.04359497 -0.06340694 -0.036688816
-0.16698587 -0.066897474 -0.07358576 0.23291019 0.14716671 -0.04112971 0.025446054 -0.054287255
0.028067915 0.21853775 0.09155607 0.30216312 0.061385617 0.20737617 0.09360218 0.42525974
0.1538651 0.023184914 -0.43496948 0.042334545 0.081848115 0.12663954 0.042614065 0.08304797
0.22155118 0.10301149 0.07180876 0.1644386 -0.043550175 0.098727636 -0.07872653 -0.06771706
-0.06338378 -0.056044422 0.48120737 -0.08496846 0.011440085 -0.014416525 -0.08912642 0.30662787
0.24014601 0.062155303 0.08292738 -0.092511036 -0.057587374 0.11197029 0.12993453 -0.029453225
0.024888271 0.0057101003 -0.018716607 -0.11779822 -0.04887226 0.11777795 -0.035081357 0.16533445
0.01045634 0.04613217 -0.08779155 -0.19658142

fc3.weight f4 [10, 84]
00000000: 7f9a e1bd 7a80 bf3c 2a4e 6dbe cf23 dc3d
00000010: 672d 663e 6b81 9d3d 559a d4be f15a 493d
00000020: 4e4d 6c3e 2d9c c9bd 99c8 8dbe 8ed1 09bd
00000030: 25b1 96bc b610 a8bd b6fc 203e 9046 6fbd
00000040: e317 1e3e 1734 f6bd d977 5bbe 7c3f e5bd
00000050: 6f78 d73c 0d41 e1bd 0e03 c1bd 7a6d c5bc
00000060: 162d 3e3d 8aae 7fbd ea84 3fbe f8a2 1b3e
00000070: ba27 d5bd afb6 9d3c ebd8 c73c 3e89 373d
00000080: 6308 d1bc 2655 ecbd 4b1e c23d f1a6 ca3d
00000090: db4f 1f3e 1f04 ce3d 7962 e2bd dc65 febd
000000a0: 16b2 673d f70f 91bc 96c3 723e d8ed 13bd
000000b0: 625e 1abe 2756 323e b7bc 57bd 4c47 54bd
000000c0: 7d7c 793e a5c3 cbbd 4994 1ebe 60ed 9cbc
000000d0: 766f a2bd 7aaa 723b f820 abbb 402e fa3d
000000e0: c2b4 6bbd bbca bdbc eadc f23d 99df 62bc
000000f0: f4a0 413d 25d5 e63d dcd3 47bd 4b84 c73d
00000100: 58d4 913e 06f3 233e a023 d13d f913 853e
00000110: a7ab b1bd 17fb 303e d1bd 313d dcd7 c33c
00000120: 5016 c93c 82c0 bbbc 55f4 08be 74e3 1bbd
00000130: b479 aa3d ac84 473e 6137 133c 5559 afbc
00000140: a048 05be 5166 d43d 2ee6 5f3c e60c db3d
00000150: 7159 ee3c 02f0 47bc a1f9 e53d f1fe 97bd
00000160: 0764 d03c ac05 e4bd 4937 e9bd 0b12 37be
00000170: 67ee ab3e 06ec 083d ee6e 6fbe 8ca0 b1bc
00000180: efd5 39be d39a 08be 0b83 9ebd 1d7d 0dbe
00000190: 7a00 e4bc 28d9 bfbe cce1 78be 9d8f f4bd
000001a0: aeee 93bd 67e5 833e bbab 7dbd 289f d9bd
000001b0: 75fc b9bd fdb6 d4bd 06f7 503e 0326 04be
000001c0: d331 6f3c fc67 7abc 6971 c23c 6b97 553e
000001d0: c334 ee3d 50ff 26be 57b0 13be f208 5cbd
000001e0: e224 a5bd ff12 26be a99a b83d 572a e6bc
000001f0: a54b 293d 98ea 87bc 8e0e 5e3e 5621 b3bd
00000200: a5d7 edbd 1fa1 0ebe c979 ac3e 1b84 74bd
00000210: 1590 cebd d31f d3bd 3140 b73d fbca 08be
00000220: ed9c 9d3d 8df2 c33c 95a7 a4bd 8db1 143d
00000230: 2d3d 47bc e6fe 093e eb25 8cbe e63e 19bd
00000240: d9bf 173e 80b7 89bb 8dca 95bc b19a 90be
00000250: d130 c03d 8dd6 de3d 8ad3 6d3e 07bc 063d
00000260: fb4e 09bd df13 d6bd 7c71 483e bddb a43d
00000270: f780 813d 99d8 363d e514 a93d 5e5f b83d
00000280: 6bc8 e2bd 3b64 813e 5ae5 a93c 7c98 acbd
00000290: 3152 503d f1ca 1fbd 56af d7bd a84b 6b3e
000002a0: 2424 48bd 5ebc ecbd ce44 253d 8f2a 283e
000002b0: 9ed0 6a3d f501 b8bb 7a9c 043e 5b1e 103e
000002c0: 2376 323d 70a1 27be c94a 503e 8049 51be
000002d0: 3204 a4bc fb85 013e 9117 c93c d3d7 73bd
000002e0: 30f8 303e 65ff c13d cb45 5a3e 929a 993e
000002f0: f61a f03c f029 543c fe2e c83d d5e3 3ebd
00000300: 8483 0bbe 477a 6dbc bd97 88bd d595 583e
00000310: 97ba e5bc 36fe 6bbd 4b03 93bd 853d 41be
00000320: fbd4 c53c 5f87 b1bb 88cd 463e 961c b93c
00000330: 9a6f f6bd 88fe ff3d ad84 c5bc 741e 1a3e
00000340: 5f99 2d3e 8180 bdbd c33e ecbd 9fad 193e
00000350: efa3 28bc d7ad 4c3e a98e 273d 0899 123d
00000360: 2b99 133e 88f8 013e 39f1 9ebb 79e9 b23d
00000370: e4fa 92bd a536 383e 23bb 52bd 149f 34bc
00000380: 747e 00bd 6141 f93b 3fc1 9f3e f178 e8bc
00000390: 96c1 6dbd ed6d d6bc 2784 8c3d 5082 293a
000003a0: b10b 9c3d 63b7 cdbd 17b9 35be d0cf cb3d
000003b0: efb5 ffbc e8b6 6ebc 0a96 79bd 8e2e 0f3d
000003c0: 6ea8 5b3e b1b1 a1bd a767 9c3d aae2 853d
000003d0: 2d77 953d b437 bdbd f742 18bb d32f 013c
000003e0: 6e28 09bc cced 18be 41d2 353d 3d96 4abe
000003f0: 7933 103e 9b07 1ebe f17b 833c 3520 dc3d
-0.11015796 0.023376692 -0.23174348 0.107490174 0.22478257 0.076907 -0.41523996 0.049158994
0.23076364 -0.09844241 -0.27692106 -0.033647113 -0.018395016 -0.08206312 0.15721402 -0.058416903
0.154388 -0.12021654 -0.21432437 -0.11193749 0.026302544 -0.109987356 -0.09424411 -0.024100054
0.046429716 -0.062422313 -0.18703046 0.15198886 -0.10407968 0.01925215 0.024395427 0.04480862
-0.025516694 -0.11539678 0.09478434 0.09895123 0.15557806 0.1005938 -0.110539384 -0.12421772
0.05656632 -0.017707808 0.23707423 -0.036115497 -0.15075067 0.17415677 -0.052670207 -0.051825806
0.24363895 -0.099494256 -0.15486254 -0.019156158 -0.07931416 0.0037027881 -0.005222436 0.12215853
-0.05754543 -0.023167958 0.11858542 -0.013847255 0.047272637 0.11271123 -0.04878603 0.0974203
0.28482318 0.16010675 0.10211873 0.259918 -0.08675318 0.17283283 0.043393914 0.02390664
0.024546772 -0.022918943 -0.13374455 -0.038058713 0.08323994 0.19484204 0.008985371 -0.021404902
-0.13015985 0.10371078 0.013665719 0.106958196 0.029095383 -0.012203218 0.112292536 -0.07421673
0.025438322 -0.11133894 -0.11387498 -0.17877977 0.33580324 0.033428214 -0.2338216 -0.021683
-0.18148015 -0.13340311 -0.07739838 -0.13817258 -0.027832258 -0.37470365 -0.24304885 -0.119414546
-0.07223259 0.25760958 -0.061931353 -0.1062606 -0.090813555 -0.10386465 0.20406732 -0.12905125
0.014599281 -0.015283581 0.023735719 0.20858543 0.11631157 -0.16308331 -0.14422737 -0.05371947
-0.080636755 -0.16218184 0.09013874 -0.028096361 0.041331906 -0.016591355 0.2168524 -0.08746593
-0.116133966 -0.1392865 0.33686665 -0.059696298 -0.10086075 -0.10308804 0.089477904 -0.13358681
0.07695947 0.023919368 -0.08039776 0.036302138 -0.012160582 0.13476142 -0.2737268 -0.0374135
0.14819278 -0.004202783 -0.01828506 -0.2824302 0.09384311 0.10880766 0.23225227 0.03289416
-0.033522587 -0.10453009 0.19574541 0.08049724 0.06323426 0.044640157 0.082559384 0.09002565
-0.11073383 0.25271782 0.020739246 -0.084275216 0.050859634 -0.0390119 -0.105314896 0.2297808
-0.04886259 -0.11559366 0.04034882 0.16422485 0.05732786 -0.0056154677 0.12950316 0.1407408
0.043569695 -0.16370177 0.20341028 -0.20438194 -0.020021532 0.12648766 0.02454737 -0.059531998
0.17282176 0.09472541 0.21315686 0.3000074 0.029309731 0.012949452 0.09774588 -0.046603996
-0.13624388 -0.014494485 -0.06669567 0.21150906 -0.028043075 -0.05761548 -0.071783625 -0.18871124
0.024149409 -0.005417749 0.19414341 0.022596639 -0.12033005 0.1249972 -0.024111116 0.1505068
0.16953038 -0.09253026 -0.11535408 0.15007637 -0.010292991 0.1998819 0.040907536 0.035790473
0.14413898 0.12692463 -0.0048505333 0.087359376 -0.0717676 0.17989595 -0.051448 -0.011024255
-0.031370595 0.0076066707 0.31202123 -0.028377982 -0.058045946 -0.026175464 0.068611436 0.00064662565
0.076194175 -0.10044744 -0.17746387 0.099517465 -0.031214682 -0.014569975 -0.060934104 0.034956507
0.2145097 -0.0789522 0.076369576 0.06537373 0.072981216 -0.0923914 -0.0023233274 0.007884937
-0.008371456 -0.14934462 0.044389967 -0.19783874 0.14082135 -0.15432589 0.01605031 0.107483305

fc3.bias f4 [10]
00000000: d8ac aebe e480 3ebf 0245 e83c 6d14 ed3e
00000010: f4f0 393f 1c1e 39bd 504f cd3d 58d0 d7be
00000020: f4db bd3e f6d4 bcbe
-0.34116244 -0.7441542 0.028353218 0.46304646 0.7263329 -0.04519473 0.10024893 -0.4215114
0.37081873 -0.36881226
