models/cifar10_conv_model.pth (torch, 251275 bytes, 10 tensors)

conv1.weight f4 [6, 3, 5, 5]
0	0xbebe8667	-0.37211916
1	0xbe357dcb	-0.17723767
2	0x3eb988e9	0.36237267
3	0x3e1dac5f	0.15397786
4	0xbec51ad1	-0.38497022
5	0x3d2a506f	0.041580614
6	0x3f2a1ed9	0.6645332
7	0x3c090c0e	0.0083646905
8	0xbf19775f	-0.5994777
9	0xbec86c62	-0.3914519
10	0x3e843894	0.25824416
11	0xbdb7a0a8	-0.089661896
12	0xbed480e9	-0.415046
13	0xbeef7249	-0.4676688
14	0x3e9a99d5	0.3019549
15	0xbde2b309	-0.110693045
16	0xbf0e18a3	-0.5550634
17	0xbdbb4e8a	-0.091458395
18	0x3eeffa44	0.46870625
19	0x3f0fe8a3	0.5621435
20	0x3e390a83	0.18070416
21	0x3e3f55db	0.18685095
22	0x3e71a9a6	0.23599872
23	0x3e16c926	0.1472517
24	0xbd1370c7	-0.035996225
25	0xbe1f0b84	-0.15531737
26	0xbd82b03d	-0.06381271
27	0x3eef151a	0.46695787
28	0x3ed6ef11	0.41979268
29	0xbe51b9c1	-0.20481016
30	0x3ea935c4	0.33048832
31	0x3f44620b	0.767121
32	0x3dd6dcb2	0.10491313
33	0xbeefeeef	-0.4686198
34	0xbe2f5690	-0.17122865
35	0x3ed49d55	0.41526285
36	0x3dd9c9ec	0.10634217
37	0xbecdcc89	-0.4019511
38	0xbe9cca15	-0.30622926
39	0x3ee64dbf	0.4498119
40	0xbe17a057	-0.14807259
41	0xbea62f99	-0.3245819
42	0xbe304dc6	-0.17217168
43	0x3e685677	0.22689234
44	0x3e9e44ef	0.30911967
45	0xbb91be95	-0.004447768
46	0x3de88b07	0.11354642
47	0x3c42aaec	0.011881571
48	0x3ccd5768	0.025066093
49	0xbec26ad6	-0.37972134
50	0xbec592e2	-0.38588625
51	0xbe380ea0	-0.17974329
52	0x3daa23ad	0.08307586
53	0x3e57028a	0.20997062
54	0xbe69b52a	-0.22823015
55	0x3e434fff	0.19073485
56	0x3f10d969	0.5658174
57	0xbcf3cd96	-0.029761117
58	0xbec063d5	-0.37576166
59	0xbe3e7b43	-0.18601708
60	0x3e16cc1f	0.14726304
61	0xbdc589c2	-0.09645416
62	0xbedaae86	-0.42711276
63	0xbec60188	-0.38673043
64	0x3edf57a4	0.43621552
65	0xbe7452ad	-0.23859663
66	0xbed8ff68	-0.4238236
67	0xbcc625ca	-0.024187941
68	0x3edfe4fd	0.43729392
69	0x3edd840b	0.43264803
70	0xbd4fad74	-0.050702527
71	0x3dbeffe4	0.09326151
72	0x3e4547e5	0.19265707
73	0x3dfb1995	0.12260739
74	0xbd25686b	-0.040382784
75	0x3bb82e8a	0.0056207823
76	0x3d4bfec0	0.049803495
77	0xbd149872	-0.036278196
78	0x3dcdcba4	0.10048607
79	0x3d8a12a6	0.06741838
80	0x3e6a010f	0.22851966
81	0xbe5ce73e	-0.21572587
82	0xbe80dd05	-0.25168625
83	0x3e35b5f9	0.17745198
84	0x3e128125	0.14307077
85	0x3e95e8d8	0.29279208
86	0xbeb37380	-0.35049057
87	0xbf0da7c9	-0.55334145
88	0x3eb4118d	0.3516964
89	0x3dadce3c	0.08486602
90	0x3e834c42	0.25644118
91	0xbe36438b	-0.17799203
92	0xbece3f6a	-0.40282756
93	0x3e9a33aa	0.30117542
94	0x3e0087f0	0.12551856
95	0x3de07998	0.10960692
96	0xbda13a0a	-0.07872398
97	0xbe9d193a	-0.3068331
98	0x3e1c5478	0.15266597
99	0xbbcb657c	-0.0062071662
100	0xbe522b3f	-0.2052431
101	0xbe0b7003	-0.13616948
102	0xbe69299d	-0.2276978
103	0x3d18e541	0.03732801
104	0x3d61d020	0.055130124
105	0x3d76f553	0.060292553
106	0xbebb904a	-0.3663352
107	0xbe987bf9	-0.29782084
108	0x3e701854	0.2344678
109	0x3de9112e	0.1138023
110	0x3e9cc282	0.30617148
111	0xbeced975	-0.40400282
112	0xbf1c1ba1	-0.6097966
113	0x3eae96e3	0.34099492
114	0x3e4049c3	0.18778138
115	0x3df982e0	0.121831656
116	0xbe9e4692	-0.30913216
117	0xbf1bfc69	-0.6093202
118	0x3e9a4d72	0.3013721
119	0x3e2fd762	0.17172006
120	0x3df86ba6	0.12129907
121	0xbea415f0	-0.32047987
122	0xbe9b76b1	-0.30363992
123	0x3e63b0c3	0.22235398
124	0x3e2a90d8	0.16656816
125	0xbb807be6	-0.00392102
126	0xbe4b3a85	-0.19846542
127	0xbe088513	-0.13332014
128	0x3e259f31	0.16174008
129	0x3d9d7621	0.07688547
130	0x3e7314c7	0.23738395
131	0xbe77e83e	-0.24209687
132	0xbe656ef2	-0.22405604
133	0x3e636e64	0.2221008
134	0x3d8e8ecf	0.06960832
135	0x3e75aec0	0.23992443
136	0xbe42ed6b	-0.1903588
137	0xbefaa685	-0.4895517
138	0x3eb035aa	0.34415942
139	0x3e6f7e9c	0.23388141
140	0x3eb8b91f	0.36078736
141	0xbe6747ab	-0.22585933
142	0xbef155e7	-0.4713585
143	0x3e9c0774	0.30474436
144	0x3de7c433	0.11316719
145	0x3e25d7db	0.16195624
146	0xbd859eb6	-0.06524412
147	0xbe7ec6ab	-0.24880473
148	0x3e1c607f	0.15271185
149	0x3e00b177	0.12567697
150	0xbddab0e2	-0.10678269
151	0xbe9c60df	-0.30542657
152	0x3e8d758a	0.27628738
153	0xbeb012c9	-0.34389332
154	0x3be626e8	0.007023681
155	0x3d4c43a7	0.049869206
156	0xbf00538a	-0.5012747
157	0x3e5e8f87	0.21734439
158	0xbf041bd3	-0.51604956
159	0x3e4b3131	0.19842984
160	0x3ec53c2b	0.38522467
161	0x3e5f4ea0	0.21807337
162	0x3f7cb509	0.9871374
163	0x3db10aee	0.08644663
164	0x3ea95b5c	0.33077514
165	0xbe34c4ba	-0.1765317
166	0xbeec0bca	-0.46102744
167	0x3e46143d	0.19343658
168	0xbefc2c89	-0.49252728
169	0xbe6bd526	-0.23030528
170	0xbe1b8f1d	-0.15191312
171	0xbe1707bc	-0.14749044
172	0x3dec9607	0.11552053
173	0xbeebe257	-0.4607112
174	0xbd6c53cf	-0.057697114
175	0xbe11bd95	-0.14232476
176	0xbe2d7f8f	-0.16943191
177	0x3e95554e	0.29166645
178	0xbf157e74	-0.5839608
179	0xbb1e7cb4	-0.0024183216
180	0x3de52ec9	0.11190564
181	0xbedee361	-0.4353285
182	0x3e6886b3	0.22707634
183	0xbf14cb18	-0.58122396
184	0x3e641d2a	0.2227675
185	0x3f25bf69	0.64745194
186	0x3f0c9ba8	0.5492501
187	0x3f8dde07	1.1083382
188	0x3e0600bd	0.13086219
189	0x3f219c80	0.63129425
190	0xbdcaec48	-0.09908348
191	0xbe40a73d	-0.18813796
192	0x3e9ef394	0.3104521
193	0xbf03bba3	-0.51458186
194	0xbd851254	-0.064976364
195	0xbdb3df68	-0.08782846
196	0xbe8ab2f8	-0.27089667
197	0x3d4e7623	0.050405633
198	0xbecab355	-0.39589944
199	0x3b62fb65	0.0034634706
200	0x3e06b5b1	0.13155247
201	0xbddfac86	-0.10921578
202	0x3e902b0b	0.2815784
203	0xbe492ee2	-0.1964679
204	0x3db758f6	0.08952515
205	0xbdad356f	-0.08457457
206	0xbf08aea7	-0.533915
207	0x3de7db8e	0.113211736
208	0xbf11ffc1	-0.57030874
209	0x3e108bf6	0.14115891
210	0x3ea4eeaf	0.3221335
211	0x3cdab8eb	0.026699504
212	0x3eef85ed	0.46781865
213	0xbacedede	-0.0015782972
214	0x3ea25dbd	0.31712142
215	0xbd7a97fb	-0.061180096
216	0xbe9b569a	-0.3033951
217	0xbaf2569f	-0.001848895
218	0xbec0026e	-0.37501854
219	0xbaa60022	-0.0012664835
220	0x3ca73053	0.020408785
221	0xbe49e6df	-0.19716977
222	0x3e95d888	0.29266763
223	0xbdf369c3	-0.11885407
224	0x3e8c9c8a	0.2746318
225	0x3e459e06	0.19298562
226	0x3ec4ada9	0.38413742
227	0x3ee3ee6a	0.44517833
228	0x3ede2b26	0.43392295
229	0x3d86fb8f	0.0659095
230	0x3de85bae	0.113456115
231	0x3f109a19	0.56485134
232	0x3ef825ef	0.4846644
233	0x3ef538e7	0.47894976
234	0x3df8f638	0.121563375
235	0x3d9795b2	0.07401599
236	0x3e2d9eac	0.1695506
237	0x3ea4efba	0.32214147
238	0x3e25c7b6	0.16189465
239	0x3dc59fa1	0.096495874
240	0xbe1a3a48	-0.15061295
241	0xbe91a7a0	-0.284482
242	0xbe98d7d3	-0.2985216
243	0xbe9b1694	-0.30290663
244	0xbe68efbb	-0.227477
245	0xbe918cdc	-0.2842778
246	0xbedd0560	-0.43168163
247	0xbe86af4f	-0.26305625
248	0xbe7ed57e	-0.24886128
249	0xbebabca6	-0.36472052
250	0xbe47568c	-0.19466609
251	0xbd3fb6da	-0.04680524
252	0xbe6e7433	-0.23286514
253	0xbe937e93	-0.28807506
254	0xbe949be9	-0.290252
255	0xbdc3d910	-0.09562886

conv1.bias f4 [6]
0	0xbeae1dec	-0.34007204
1	0xbf0dfbfe	-0.55462635
2	0xbf6ec0bd	-0.93262845
3	0xbf1724c0	-0.5904045
4	0xbe2ed7d4	-0.1707452
5	0xbf2d39a8	-0.676661

conv2.weight f4 [16, 6, 5, 5]
0	0xbd85afb6	-0.06527655
1	0xbdf0947d	-0.11747072
2	0xbe677b25	-0.2260557
3	0x3d3ebcaa	0.046566643
4	0xbd221b28	-0.03957668
5	0xbdd9f275	-0.10641948
6	0xbdd0096c	-0.10158047
7	0xbe0b0cb4	-0.13579065
8	0xbdb3905c	-0.08767769
9	0xbd291148	-0.041276246
10	0xbe01ebd3	-0.12687616
11	0xbd124ad8	-0.035715908
12	0xbe23a660	-0.15981436
13	0xbe1b6f41	-0.15179159
14	0xbdd5d5b1	-0.10441149
15	0xbc8fc050	-0.017547756
16	0xbc9ffbbd	-0.019529218
17	0xbd7f3cdd	-0.062313903
18	0xbd855713	-0.06510749
19	0xbd1f9e33	-0.03896923
20	0x3c1f4506	0.009721046
21	0xbd472db0	-0.048627555
22	0xbd7cd960	-0.061730742
23	0xbddac7e6	-0.10682659
24	0xbe02ea2c	-0.12784642
25	0xbe229674	-0.15877706
26	0xbdb009e9	-0.0859564
27	0xbe115f81	-0.14196588
28	0xbdd94524	-0.10608891
29	0x3d8ee867	0.06977921
30	0xbe0156d5	-0.1263078
31	0xbd6f8172	-0.058473058
32	0xbd55e948	-0.052224427
33	0x3c1808fc	0.009279486
34	0xbc7511e9	-0.014957883
35	0xb718958d	-9.094726e-06
36	0xbcc23d88	-0.023710981
37	0x3de4ef54	0.11178461
38	0x3e11a392	0.14222553
39	0x3e2b8a5e	0.16752002
40	0x3d2a57ac	0.041587517
41	0xbcfe0215	-0.031006852
42	0x3d99daac	0.075124115
43	0x3c97fb41	0.018552424
44	0xbc65b25b	-0.014019574
45	0xbde20557	-0.11036175
46	0xbd95017f	-0.07275676
47	0xbd4d47e2	-0.05011738
48	0x3cee7522	0.029108588
49	0xbdc560ee	-0.096376285
50	0x3e42a61b	0.19008677
51	0x3da13561	0.07871509
52	0x3e4a8136	0.19775853
53	0x3e1d80c6	0.15381154
54	0x3dd09f9b	0.10186692
55	0x3e34f622	0.17672017
56	0x3dbaa86d	0.09114156
57	0x3e3c7e59	0.18407573
58	0x3e08326c	0.13300484
59	0x3e18dc0f	0.14927696
60	0x3ca61387	0.020272983
61	0x3d1985bb	0.03748105
62	0x3ce49ac0	0.027905822
63	0xbd18c4f9	-0.037297223
64	0xbd2520e2	-0.040314563
65	0xbd62cf6e	-0.0553736
66	0xbd9629b9	-0.07332177
67	0xbde4cfc4	-0.11172441
68	0xbdb7e3f9	-0.08979029
69	0x3d51c363	0.051211726
70	0xbd1548a5	-0.036446232
71	0xbd5b1a16	-0.053491674
72	0x3d04167c	0.032248005
73	0x3d1f9cc5	0.038967866
74	0xbcbb5402	-0.022867206
75	0x3df68876	0.120377466
76	0x3e724669	0.23659672
77	0x3e4044e7	0.18776284
78	0x3e2a2b9a	0.16618195
79	0xbd9c23df	-0.07624029
80	0x3e84b193	0.25916728
81	0x3ea97d95	0.33103624
82	0x3e7ed6c9	0.24886622
83	0x3eca82f0	0.39553022
84	0x3e8050c9	0.25061634
85	0xbd8d5fce	-0.06903039
86	0xbc9a8741	-0.018863322
87	0xbd8da819	-0.06916828
88	0x3dc1a59a	0.09455414
89	0x3df7f848	0.12107903
90	0xbe909de2	-0.28245455
91	0xbe8fbee3	-0.28075323
92	0xbe9b3f85	-0.303219
93	0xbe997f11	-0.29979756
94	0xbe2156f6	-0.15755829
95	0xbe8db39d	-0.27676097
96	0xbe78189b	-0.24228136
97	0xbe49329c	-0.19648212
98	0xbe5c0aaa	-0.21488443
99	0xbe98c7b4	-0.2983986
100	0x3dbd54ad	0.09244666
101	0x3e2b29a0	0.16715097
102	0x3e53cf87	0.20684634
103	0x3d9993d9	0.07498903
104	0xbcea45c7	-0.028597726
105	0xbd293787	-0.04131272
106	0xbd9a9fd3	-0.07550015
107	0xbc66ad2b	-0.014079372
108	0xbbff183e	-0.0077848723
109	0x3bc25309	0.0059303087
110	0xbe296807	-0.1654359
111	0xbe4d7be8	-0.20066798
112	0xbdcdd41c	-0.10050222
113	0x3c8d9330	0.017282099
114	0x3d62b9c8	0.055352956
115	0xbe0755a9	-0.1321627
116	0xbe00419d	-0.1252503
117	0xbdac945f	-0.08426737
118	0xbd64a03f	-0.055816885
119	0x3d64dd63	0.055875193
120	0xbd70b4a3	-0.05876602
121	0xbd18087e	-0.037117474
122	0x3d8d0fc9	0.068877764
123	0x3c4a571c	0.01234987
124	0x3da88c87	0.082299285
125	0xbe2791cd	-0.16364212
126	0xbe01e41f	-0.12684678
127	0xbe0f88cd	-0.14017029
128	0xbd5a9435	-0.053363997
129	0xbc960f40	-0.018317819
130	0x3c899bc4	0.016797908
131	0xbb6643d0	-0.0035135634
132	0x3ca8ab49	0.020589488
133	0xbc6631c5	-0.014049952
134	0xbc9441bb	-0.018097749
135	0xbbb16bb7	-0.005414452
136	0xbdc07b81	-0.093985565
137	0xbcaefa14	-0.02135948
138	0xbda8cb3f	-0.08241891
139	0xbd95a3b6	-0.07306616
140	0x3d66cc4d	0.05634718
141	0xbd928d76	-0.07155888
142	0xbd1c36cd	-0.0381382
143	0xbd8f1652	-0.06986679
144	0xbdc2aba2	-0.095053926
145	0x3d4fae8c	0.05070357
146	0x3d39275c	0.04520355
147	0xbdb9ecb7	-0.09078353
148	0x3c76b475	0.015057673
149	0xbde71fa4	-0.11285332
150	0xbe4498e8	-0.19198954
151	0xbe99e0f3	-0.30054435
152	0xbe87e2aa	-0.26540118
153	0xbe1aaf8b	-0.15106027
154	0xbdb2691c	-0.08711454
155	0xbe91cad5	-0.2847506
156	0xbe8df99b	-0.27729496
157	0xbe4d9102	-0.20074847
158	0xbe3066bb	-0.17226689
159	0x3e0027c7	0.12515174
160	0xbe0a2224	-0.13489586
161	0xbe8da9dd	-0.27668658
162	0xbe16184e	-0.14657709
163	0x3deab9c6	0.11461215
164	0x3eb519a5	0.35371128
165	0x3d388e2d	0.045057464
166	0x3e315aed	0.17319842
167	0x3ea2480f	0.316956
168	0x3ea7a42d	0.32742444
169	0x3e829229	0.25502136
170	0x3e8fa03d	0.2805194
171	0x3e44750e	0.19185278
172	0x3e1c82d0	0.15284276
173	0x3dd03f56	0.1016833
174	0x3dc3ba3e	0.09557007
175	0xbdfbc60f	-0.12293636
176	0xbe0b9c3d	-0.13633819
177	0xbe8633dd	-0.26211444
178	0xbe8fdac5	-0.28096595
179	0xbe26d669	-0.16292728
180	0x3d51f486	0.051258586
181	0xbddf10ca	-0.10891874
182	0xbe7855e8	-0.2425152
183	0xbe8a01df	-0.26954553
184	0xbcf94dda	-0.03043263
185	0x3d815a6f	0.06316077
186	0xbe0a4874	-0.13504201
187	0xbe4c7a19	-0.19968452
188	0xbe75d2a9	-0.24006142
189	0xbbd7697c	-0.006573854
190	0x3ce47d72	0.027891848
191	0xbe414c0b	-0.18876664
192	0xbea0fd30	-0.31443167
193	0xbdd89972	-0.10576142
194	0x3dd13933	0.10215988
195	0x3e57f16d	0.2108819
196	0x3cb87dee	0.022520985
197	0xbcb758c3	-0.022381192
198	0xbdb72cd4	-0.08944097
199	0x3ddbab4f	0.10726034
200	0xbdf98257	-0.121830635
201	0xbe61909c	-0.2202782
202	0xbe48bdc7	-0.19603644
203	0xbe1b3fec	-0.15161103
204	0xbe0a3cb8	-0.13499725
205	0xbe6cf09f	-0.23138665
206	0xbe5ff101	-0.2186928
207	0xbe831277	-0.25600025
208	0xbe7a4f3d	-0.2444429
209	0xbe05dcd1	-0.13072516
210	0xbe730c37	-0.23735128
211	0xbe4c9406	-0.19978341
212	0xbe44cb71	-0.19218232
213	0xbe86cf87	-0.26330206
214	0xbd35849d	-0.044315923
215	0xbd3eb6b4	-0.046560958
216	0x3d887646	0.06663184
217	0x3cbd1955	0.023083368
218	0x3db037bd	0.08604381
219	0x3daaeb1d	0.083456255
220	0x3bbd7170	0.005781345
221	0x3e463d27	0.19359265
222	0x3e383571	0.17989136
223	0x3e185a6f	0.14878248
224	0x3e8968d0	0.26837778
225	0x3db5ddc1	0.08880187
226	0xbdc8bfba	-0.09802194
227	0xbe08f678	-0.1337527
228	0xbdbc7277	-0.0920152
229	0x3d04fb68	0.032466322
230	0x3e00a003	0.1256104
231	0x3c28a6b6	0.010293653
232	0xbde25aac	-0.110524505
233	0xbceebcc7	-0.02914275
234	0xbd3e7a30	-0.046503246
235	0x3e04c174	0.12964422
236	0xbd2bf2ed	-0.04197972
237	0xbd9e0388	-0.07715517
238	0x3c1c808b	0.009552131
239	0x3d9c71ed	0.07638917
240	0x3d82a7af	0.06379639
241	0x3d8f6841	0.07002307
242	0x3e14407d	0.14477725
243	0x3d1c2e1a	0.038129903
244	0x3d31f2de	0.043444507
245	0x3a3c2dde	0.00071784656
246	0xbdecee23	-0.115688585
247	0xbe00bdb5	-0.12572367
248	0xbe464a6e	-0.1936433
249	0xbe0baf61	-0.1364112
250	0x3c48bfcc	0.012252759
251	0x3c82d1ea	0.015969235
252	0x3b8a327b	0.0042174435
253	0x3e16a61f	0.14711808
254	0x3d39205a	0.04519687
255	0xbb0987ed	-0.002098556

conv2.bias f4 [16]
0	0x3d8b5586	0.06803422
1	0x3dde6f31	0.10861052
2	0xbd565972	-0.052331395
3	0xbce9beb5	-0.028533319
4	0xbeef984a	-0.46795875
5	0xbde0a9cc	-0.10969886
6	0xbf075b09	-0.52873284
7	0xbe3e9cbf	-0.18614481
8	0xbe3f3763	-0.18673472
9	0x3e8dabb3	0.2767006
10	0x3f31865b	0.69345635
11	0xbed22d77	-0.41050312
12	0x3e16a74d	0.14712258
13	0x3fb7028e	1.4297655
14	0xbf855226	-1.0415695
15	0xbedba700	-0.42900848

fc1.weight f4 [120, 400]
0	0x3d3789d6	0.044809185
1	0x3d69423b	0.056947928
2	0x3e280a3c	0.16410154
3	0x3d8f5392	0.06998362
4	0x3d84976b	0.06474193
5	0xbd833cba	-0.06408067
6	0x3bc9c8f4	0.0061579887
7	0x3df90560	0.12159228
8	0x3c7b9e24	0.015357528
9	0xbbdeedba	-0.0068032416
10	0xbca7cc2a	-0.020483095
11	0x3a9ef0c3	0.0012126196
12	0xbd7fb0b2	-0.06242437
13	0xbbd10a6a	-0.0063794153
14	0xbc99c0c1	-0.01876867
15	0xbc86f06a	-0.01647206
16	0xbc26b622	-0.01017526
17	0xbb7440de	-0.003727011
18	0xbde0c239	-0.10974545
19	0xbd44757f	-0.047963616
20	0x3c794f14	0.015216608
21	0xbd46e8fe	-0.048562042
22	0xbdd59992	-0.10429682
23	0xbc27f2f5	-0.010250797
24	0xbaff58fe	-0.0019481478
25	0xbd811962	-0.063036695
26	0x3bf2513d	0.0073949383
27	0x3cdac7ba	0.026706565
28	0xbcb75831	-0.02238092
29	0xbd94093e	-0.07228325
30	0xbc688658	-0.014192186
31	0xbd5f9aa4	-0.054590836
32	0xbc4364db	-0.011925901
33	0x3d1f085f	0.038826343
34	0xbd54e8b5	-0.05197974
35	0x3dc4be3f	0.09606599
36	0xbd004a6e	-0.03132098
37	0xbd5820db	-0.05276571
38	0xbd842bf8	-0.06453699
39	0xbc8e2648	-0.017352238
40	0x3b9e621b	0.0048334724
41	0xbd52e98a	-0.05149225
42	0xbdeca9da	-0.11555834
43	0xbdadf4bc	-0.08493945
44	0xbd90397b	-0.070422135
45	0xbc487f06	-0.012237316
46	0xbd55d7c1	-0.052207712
47	0xbcddc02b	-0.027069172
48	0x38c6c0dd	9.477299e-05
49	0x3d282021	0.041046266
50	0xbd326d6c	-0.043561384
51	0xbb175a58	-0.002309462
52	0x3d30df30	0.0431816
53	0xbd36076b	-0.044440668
54	0xbd1a2995	-0.037637312
55	0x3d74909b	0.05970822
56	0x3d60a538	0.054845065
57	0xbcc01ea9	-0.02345212
58	0xbd38cea3	-0.04511894
59	0x3c85f9e9	0.016354518
60	0xbcc0762b	-0.023493847
61	0x3d21808e	0.03942924
62	0xbc9f417c	-0.019440405
63	0x3bc328f7	0.005955811
64	0xbc57bb1a	-0.013167167
65	0x3c5fa044	0.01364905
66	0x3d6582c8	0.056032926
67	0x3da220a0	0.07916379
68	0x3dbb18c6	0.091355845
69	0x3dad7575	0.08469669
70	0xbd821f9e	-0.06353687
71	0xbd0452b3	-0.03230543
72	0xbd08f59b	-0.033437353
73	0x3d24bfa5	0.04022183
74	0xbd37e8c9	-0.044899736
75	0x3d13407d	0.035950173
76	0xbc8adcd6	-0.016951006
77	0x3d18bb8f	0.037288245
78	0x3c61a812	0.013772981
79	0xbce06d71	-0.027395936
80	0xbd401b7e	-0.04690122
81	0x3d2b8a7d	0.04188012
82	0x3c90d459	0.01767938
83	0x3bf70fb5	0.007539714
84	0xbc939af4	-0.018018223
85	0xbd8c1b59	-0.06841154
86	0x3d3bc7cf	0.04584485
87	0xbce4ee1e	-0.027945574
88	0x3c1ef7fb	0.009702678
89	0x3d86b602	0.06577684
90	0xbdcd3b2e	-0.10021053
91	0xbd9fd59c	-0.07804415
92	0xbd60194a	-0.054711618
93	0xbdeb0bf4	-0.11476889
94	0xbda9dba8	-0.08293849
95	0xbd4357f5	-0.047691304
96	0xbd87f15d	-0.06637833
97	0xbd368bcf	-0.044566926
98	0xbddcf023	-0.1078799
99	0xbb4f2a1a	-0.0031610788
100	0xbdf035c0	-0.11729002
101	0xbdb58cc7	-0.08864742
102	0x3c3b9297	0.011448524
103	0x3d3aa701	0.045569424
104	0x3d84fbd2	0.064933434
105	0x3c248eee	0.010043843
106	0xbbd57809	-0.0065145534
107	0xbd561726	-0.05226817
108	0xbbf7d6bc	-0.00756344
109	0xbb1eade8	-0.0024212543
110	0x3d5d17b1	0.053977672
111	0xbd2ca06d	-0.04214518
112	0x3c0eec11	0.008723275
113	0xbd930752	-0.071791306
114	0x3bc093f4	0.0058770124
115	0x3d97b4b5	0.07407514
116	0xbcea9c17	-0.028638883
117	0x3d0b187a	0.03395889
118	0xbc6987a0	-0.014253527
119	0xbc8d3068	-0.017234996
120	0xbcfaccdc	-0.030615263
121	0xbcff557e	-0.031168696
122	0xbdbeb0d2	-0.093110695
123	0xbcae0128	-0.021240786
124	0xbcb1c9fc	-0.021702759
125	0xbd43cd13	-0.047802996
126	0xbc1a3640	-0.009412348
127	0xbda3f1bb	-0.08005091
128	0xbd9fb317	-0.077978306
129	0xbcf65585	-0.030070076
130	0x3c8cddaf	0.01719555
131	0x3c6b7e95	0.014373441
132	0xbd4dff59	-0.050292347
133	0xbdae2467	-0.08503037
134	0xbda098b5	-0.078416266
135	0xbc33b96b	-0.0109695
136	0xbdb163f4	-0.08661643
137	0xbe0332ab	-0.12812297
138	0xbe2d70c0	-0.16937542
139	0xbdb09316	-0.086218044
140	0xbc71cd34	-0.014758397
141	0xbd7d0400	-0.061771393
142	0xbb396055	-0.0028286178
143	0xbd19a7a1	-0.03751338
144	0xbd1423aa	-0.036166824
145	0x3db538f4	0.088487536
146	0xbd6ecd38	-0.05830118
147	0xbd05943f	-0.03261208
148	0x3da1c81a	0.078994945
149	0x3de43a82	0.11143972
150	0xbc034a0f	-0.008013262
151	0x3d442c81	0.047894005
152	0x3d388d17	0.04505643
153	0x3c8c0434	0.017091848
154	0x3d9c5d10	0.07634938
155	0x3c1a033d	0.009400186
156	0xbcd7f5da	-0.026362348
157	0x3d3d9874	0.04628797
158	0x3a31c41a	0.00067812356
159	0x3c98a92c	0.018635355
160	0xbd99bc6f	-0.07506644
161	0x3c2e6ab9	0.010645562
162	0xbc27d2b9	-0.010243111
163	0x3d56dad5	0.05245479
164	0x3cf56407	0.029954923
165	0x3c975e85	0.018477688
166	0xbcd7a6ef	-0.026324717
167	0xbc8c9b12	-0.017163787
168	0xbb095cb7	-0.0020959803
169	0xbce79807	-0.028270734
170	0x3e00044f	0.12501644
171	0x3da18e20	0.07888436
172	0x3dbba5b3	0.09162464
173	0x3dfe23d9	0.12409181
174	0x3dcf8436	0.10132639
175	0x3c79ead2	0.015253739
176	0x3ab5eddc	0.0013880092
177	0x3d16094c	0.03662996
178	0x3d8b779b	0.06809922
179	0x3d3ceb9c	0.046123132
180	0x3b136298	0.0022489186
181	0x3bc3922c	0.005968353
182	0xbd89d3d9	-0.0672986
183	0x3cf50497	0.029909415
184	0x3cfd649c	0.030931763
185	0x3d4caca6	0.049969338
186	0x3ce2d76b	0.02769061
187	0x3ce38eb7	0.027778013
188	0x3b6c7416	0.0036079935
189	0x3d5aeca1	0.053448323
190	0x3bbf0281	0.005829156
191	0x3dcd9f13	0.100401066
192	0x3b598d91	0.0033195952
193	0xb944e960	-0.00018778956
194	0xbcbf9719	-0.023387479
195	0xbc158387	-0.009125597
196	0x3c750185	0.014953976
197	0x3d69d6b1	0.05708951
198	0xbbd43d99	-0.0064770696
199	0xbd675303	-0.05647565
200	0xbc161673	-0.009160626
201	0x3d67ac60	0.056560874
202	0x3c605380	0.013691783
203	0xbd599307	-0.05311873
204	0xbd84de2c	-0.064876884
205	0x3cdb4091	0.026764186
206	0x3c566343	0.013085189
207	0xbd58c2f7	-0.052920308
208	0x3c0065b3	0.007836747
209	0xbd811377	-0.06302541
210	0xbc579a6d	-0.013159377
211	0x3d1bd005	0.03804018
212	0x3ca281cb	0.01983728
213	0xbdaac152	-0.08337654
214	0x3d579833	0.052635383
215	0x3e06ba38	0.13156974
216	0x3cc0dd71	0.023543091
217	0x3d414c50	0.047191918
218	0xbc366d8a	-0.011134515
219	0x3d31bda0	0.04339373
220	0xbcaea6d8	-0.021319792
221	0xbcce7d09	-0.025206106
222	0x3d3e9a3f	0.04653382
223	0xbbbd20a9	-0.0057717157
224	0xbd84fd4a	-0.064936236
225	0x394fe819	0.00019827521
226	0x3dc53ec7	0.096311145
227	0x3d68d3d4	0.05684264
228	0xbc46fe59	-0.012145602
229	0xbd5db007	-0.05412295
230	0x3c0c1dcd	0.008552027
231	0x3c870f8e	0.01648691
232	0x3d709a4e	0.058740906
233	0x3d8657ba	0.06559701
234	0xbcad7b04	-0.021176822
235	0x3d38770e	0.045035414
236	0xbd16f3a5	-0.03685345
237	0x3ca5dac4	0.020245917
238	0x3c999290	0.018746644
239	0xbd586a22	-0.05283559
240	0xbd0c6083	-0.03427173
241	0x3c907bbd	0.017637128
242	0x3cc0c4c6	0.023531329
243	0x3b306d64	0.002692067
244	0xbcb2c6f7	-0.02182339
245	0xbd92f3ef	-0.07175433
246	0x3c4e5b2e	0.012594981
247	0x3cf3828d	0.029725337
248	0xbc9c6254	-0.019089855
249	0xbdca8046	-0.098877475
250	0xbd968053	-0.07348695
251	0xbdc312e6	-0.09525089
252	0x3cc809c1	0.024418714
253	0x3d98926d	0.074498035
254	0x3dd916f1	0.10600079
255	0xbd1328f6	-0.035927735

fc1.bias f4 [120]
0	0xbdf01d71	-0.117243655
1	0x3d0f3a6e	0.034967832
2	0xbd16763c	-0.03673385
3	0x3e29992b	0.16562335
4	0x3d3d34f2	0.04619307
5	0xbe3ab458	-0.18232858
6	0x3d99fd74	0.075190455
7	0x3de87fac	0.113524765
8	0xbdb4fabe	-0.08836888
9	0xbe11bb59	-0.14231624
10	0xbc81c12a	-0.015839178
11	0xbd4dab8e	-0.050212435
12	0xbd298360	-0.041385055
13	0xbb3ba703	-0.0028633482
14	0x3d689f94	0.05679281
15	0x3cc7e366	0.024400424
16	0x3cf31293	0.029671943
17	0x3db667db	0.089065276
18	0xbbd2fe5a	-0.0064390125
19	0x3d825256	0.063633606
20	0x3b89b2d7	0.0042022276
21	0x3cfdbf0e	0.030974891
22	0x3c8d19fe	0.017224308
23	0x3c126405	0.008934979
24	0xbcf2cfd7	-0.029640121
25	0xbc584622	-0.013200315
26	0x3d61fa5a	0.055170394
27	0x3e00c2ef	0.12574361
28	0x3c14d15e	0.00908312
29	0x3e1ebe83	0.15502362
30	0x3cd38bea	0.025823552
31	0x3e50d5b2	0.20394018
32	0xbc116c1c	-0.008875873
33	0xbb37f274	-0.0028068097
34	0x3d21abc2	0.03947044
35	0xbce23113	-0.027611291
36	0xbc7f8330	-0.015595242
37	0xbd0866aa	-0.033301033
38	0x3dcb006d	0.099121906
39	0x3e1570ef	0.14593862
40	0xbdd10f71	-0.10208023
41	0x3c280c07	0.010256774
42	0xbd576526	-0.052586697
43	0xbca45118	-0.0200582
44	0xbcd865f4	-0.026415803
45	0x3e58c726	0.21169719
46	0x3d2e8dce	0.042615704
47	0x3e3e5161	0.18585731
48	0x3e7bdb7b	0.24595444
49	0x3d5bb9df	0.053644057
50	0x3e9f3a4a	0.3109916
51	0x3d3da38c	0.04629855
52	0x3e3a0209	0.18164839
53	0x3d837222	0.064182535
54	0xbdf6f347	-0.1205812
55	0xbd77fc6d	-0.060543466
56	0x3ab536bd	0.0013825517
57	0xbdd3a9cf	-0.10335123
58	0xbd44869f	-0.047979947
59	0x3d642ea5	0.055708546
60	0x3d94860f	0.07252132
61	0xbd0a251a	-0.03372679
62	0x3bae9aac	0.005328497
63	0x3e47b6b5	0.19503291
64	0x3c45dd32	0.012076663
65	0x3e5f095a	0.21780911
66	0xbd45b7fb	-0.04827116
67	0x3db64188	0.08899218
68	0xbcca7d19	-0.024717854
69	0xbbcc3149	-0.006231461
70	0xbd06ef55	-0.03294309
71	0x3ce48660	0.027896106
72	0xbc89c69a	-0.016818333
73	0xbda1e6dc	-0.07905361
74	0x3d6ce1bb	0.05783246
75	0xbd4349c8	-0.047677785
76	0xbe4e281a	-0.20132485
77	0x3da12d97	0.07870024
78	0xbceef08e	-0.02916744
79	0xbc8100eb	-0.015747508
80	0xbdbbedc6	-0.09176211
81	0x3ca36546	0.019945752
82	0xbcf9277c	-0.030414335
83	0x3c24d5a7	0.010060704
84	0xbd992a66	-0.0747879
85	0x3dbb5312	0.09146704
86	0xbcf1f943	-0.029537803
87	0xbd014dbb	-0.03156827
88	0x3dc0f66e	0.09422003
89	0xbcf8f55d	-0.030390436
90	0xbc770ca4	-0.015078697
91	0xbd8e00ff	-0.06933784
92	0x3c5d004d	0.013488841
93	0xbac733ec	-0.0015197969
94	0x3db91dee	0.09038912
95	0x3d8b6ca6	0.068078324
96	0xbd369b12	-0.04458148
97	0x3c04c8aa	0.008104483
98	0x3d4e4483	0.050358307
99	0x3bcd9aa7	0.0062745395
100	0xbdb08b1b	-0.08620282
101	0x3d75bbca	0.059993543
102	0xbd0f43b6	-0.034976684
103	0x3daacbfe	0.0833969
104	0x3d2aaa21	0.041666154
105	0xbc13e3f5	-0.009026517
106	0x3d2c5560	0.042073607
107	0x3ded7775	0.1159505
108	0x3df93f30	0.12170255
109	0xbcd7e865	-0.026355932
110	0xbdbf26e9	-0.093335934
111	0xbdb90858	-0.090347946
112	0x3d050d60	0.03248346
113	0x3d6d4eac	0.057936355
114	0xbc1445f3	-0.00904988
115	0xbc633f32	-0.013870047
116	0x3d91b00e	0.07113658
117	0x3dd59732	0.10429229
118	0xbdac9789	-0.084273405
119	0x3cc1ed63	0.023672765

fc2.weight f4 [84, 120]
0	0xbd6daa55	-0.05802377
1	0x3d6499d6	0.055810772
2	0x3e3df4cb	0.18550412
3	0xbb4f59b1	-0.0031639154
4	0x3d734a3b	0.059396964
5	0x3c485fb0	0.012229845
6	0xbdcb856d	-0.09937558
7	0xbdd2b142	-0.102877155
8	0xbe026f0e	-0.12737677
9	0xbe227149	-0.15863527
10	0xbdfc8b09	-0.12331206
11	0xbb040ea0	-0.0020150319
12	0xbdda1c61	-0.10649944
13	0xbde658e0	-0.1124742
14	0xbd6dd9c7	-0.058069017
15	0xbd0eaac5	-0.034830827
16	0xbcba57cc	-0.022746943
17	0x3d080f62	0.033217795
18	0x3c8e7e8a	0.017394323
19	0xbd83334d	-0.06406269
20	0x3d4f53e6	0.05061712
21	0xbdce3f54	-0.10070673
22	0x3bb93514	0.0056520794
23	0x3d9abd7b	0.07555672
24	0x3c855f83	0.016280895
25	0x3dbb25aa	0.09138043
26	0xbd59d5a6	-0.053182267
27	0x3df4dd0d	0.119562246
28	0xbd50c447	-0.050968435
29	0x3e0126a5	0.12612398
30	0x3ca2d9fe	0.019879337
31	0x3d2bb62a	0.041921772
32	0x3dbeaac1	0.093099125
33	0x3db66f71	0.089079745
34	0xbb359cd6	-0.002771189
35	0xbd6ddb5c	-0.058070526
36	0x3dc29f2d	0.095030166
37	0xbca2a3b3	-0.019853448
38	0xbcf4d303	-0.029885774
39	0xbdd17529	-0.10227425
40	0xbe09d3e8	-0.13459742
41	0x3d9ac59f	0.075572245
42	0x3d9fcd0f	0.07802784
43	0xbdaebf0a	-0.085325316
44	0x3dc1fb04	0.094717056
45	0x3d5e820d	0.054323245
46	0xbdfd3e00	-0.12365341
47	0xbcc62610	-0.024188071
48	0xba90883d	-0.001102693
49	0x3df1714f	0.1178919
50	0xbdd211b6	-0.10257284
51	0xbbc0c493	-0.0058828085
52	0xbc83097e	-0.015995737
53	0xbc94988d	-0.018139148
54	0xbe1650d8	-0.14679277
55	0x3da7665a	0.08173819
56	0xbe2a24d1	-0.16615607
57	0xbe3bc2ee	-0.18336079
58	0x3d541df8	0.051786393
59	0xbd12f074	-0.035873845
60	0x3c619e92	0.013770716
61	0x3c64e7b7	0.013971261
62	0xbdbf9f4a	-0.09356554
63	0x3bf89396	0.007585953
64	0xbdb16790	-0.08662331
65	0xbcaa8791	-0.020816596
66	0xbc09b708	-0.008405454
67	0xbbcbdbe5	-0.006221282
68	0x3d3ffe74	0.046873525
69	0xbce7c6cf	-0.028293042
70	0x3cd8985f	0.026439844
71	0x3d38fa73	0.045160722
72	0xbdcfddee	-0.101497516
73	0x3d0f1c96	0.03493937
74	0x3d46f9d6	0.048578106
75	0xbd010821	-0.031501893
76	0xbd117df7	-0.03552052
77	0xbd02c556	-0.031926475
78	0xbe05be6c	-0.13060921
79	0x3d43f438	0.047840327
80	0x3d8de845	0.069290675
81	0x3d63f311	0.055651728
82	0xbcd40caf	-0.025884954
83	0x3c92e0f8	0.01792954
84	0x3dd31d14	0.103082806
85	0x3b9f11b0	0.0048544034
86	0x3ca95472	0.02067015
87	0x3dcc83d4	0.09986082
88	0x3da6de33	0.0814785
89	0xbcc3155a	-0.023813892
90	0xbd2276aa	-0.039663948
91	0x3db1e351	0.08685935
92	0xbdcc5a03	-0.09978106
93	0xbb956840	-0.0045595467
94	0x3ce0a488	0.027422205
95	0xbe022985	-0.12711151
96	0x3cb95764	0.022624679
97	0x3d11b6d5	0.035574753
98	0xbe14f6a7	-0.14547215
99	0x3c2a81d9	0.010406935
100	0x3da549d8	0.08070725
101	0xbd376d09	-0.04478172
102	0xbd18ff38	-0.03735277
103	0x3ba5ef0b	0.0050638965
104	0xbd50089c	-0.05078946
105	0xbe371978	-0.1788081
106	0x3d96579a	0.073409274
107	0x3cf29706	0.02961303
108	0xbe08da9f	-0.13364647
109	0x3c9443f4	0.018098809
110	0x3dd7303b	0.10507246
111	0x3da48baa	0.08034451
112	0xbc0211c8	-0.00793881
113	0xbce950b0	-0.028480858
114	0xbda89e47	-0.08233314
115	0x3de538fc	0.111925095
116	0x3da30379	0.07959647
117	0xbe15a34a	-0.14613071
118	0xbcb3f71c	-0.021968417
119	0xbe0f3ac2	-0.13987258
120	0x3cf0d40c	0.029397987
121	0xbc5b2afe	-0.013376949
122	0xbc105327	-0.008808888
123	0x3d544a5e	0.051828735
124	0x3d2a5c03	0.041591655
125	0xbd7122ae	-0.058870964
126	0x3d3f21a9	0.04666296
127	0x3caa6b1a	0.020803023
128	0x3d8bd0e5	0.06826953
129	0x3e257832	0.16159132
130	0xbe0bb494	-0.13643104
131	0xbc7db375	-0.01548468
132	0xbe135424	-0.14387566
133	0xbd011fde	-0.03152453
134	0xbd72ec37	-0.059307303
135	0xbd05f7d9	-0.03270707
136	0xbe064c98	-0.13115156
137	0x3b59d936	0.003324104
138	0x3d8daf4e	0.06918202
139	0x3cacbb84	0.021085508
140	0x3df2128f	0.11819946
141	0x3da50078	0.0805673
142	0x3d0867dc	0.033302173
143	0x3d49dbe6	0.049281977
144	0x3d8793a2	0.066199556
145	0xbd5ecebb	-0.054396372
146	0x3d70029d	0.058596242
147	0x3da39bd6	0.07988708
148	0xbda126d7	-0.07868736
149	0xbc7e6b00	-0.0155284405
150	0xbdd3f9a1	-0.10350347
151	0x3ce54500	0.027987003
152	0xbce32b89	-0.02773072
153	0xbd10b389	-0.035327468
154	0xbdeda793	-0.11604228
155	0xbcf519ee	-0.02991959
156	0x3d70ff99	0.058837507
157	0xbd096387	-0.033542182
158	0x3d8700d9	0.065919586
159	0xbde4970a	-0.11161621
160	0xbd1bf580	-0.038075924
161	0x3d950165	0.072756566
162	0xbc98288d	-0.018574024
163	0xbd46313f	-0.04838681
164	0xbc32f203	-0.010921958
165	0xbd20baef	-0.039240774
166	0xbd16d729	-0.036826286
167	0xbd34514a	-0.044022836
168	0xbd02c6ad	-0.031927753
169	0xbc8bcd4f	-0.017065672
170	0xbd6edeb1	-0.058317844
171	0x3c1691a8	0.009190001
172	0xbe377b1f	-0.1791806
173	0xbbc3ab32	-0.005971336
174	0x3d1b4162	0.03790415
175	0xbcc0f677	-0.023555024
176	0xbc3ddec1	-0.011588753
177	0xbd6db9ca	-0.05803851
178	0xbc151b1e	-0.0091007035
179	0xbdadbe65	-0.084835805
180	0x3ab1639c	0.0013533714
181	0xbdc65b67	-0.09685402
182	0xbd93d593	-0.072184704
183	0x3cb3345c	0.021875553
184	0xbd579a8a	-0.052637614
185	0x3e2834c5	0.1642638
186	0x3dee6591	0.11640466
187	0xbe23d8cd	-0.16000672
188	0xbc79bc58	-0.015242659
189	0x3d85b741	0.065290935
190	0xbcc2e1b2	-0.02378926
191	0x3d924292	0.071416035
192	0x3d990c41	0.0747304
193	0x3d703d30	0.058652103
194	0xbd5374e7	-0.05162516
195	0xbdf19905	-0.11796764
196	0xbd678e62	-0.05653227
197	0x3e48282f	0.19546579
198	0xbdfc655b	-0.123240195
199	0x3d904562	0.07044484
200	0xbda51c14	-0.08061996
201	0x3da03f62	0.07824589
202	0xbc49a1f4	-0.012306679
203	0x3c706bd6	0.014674148
204	0x3d77450c	0.060368583
205	0xbdb5ca1f	-0.08876442
206	0x3dab4b9d	0.083640315
207	0x3cd8b711	0.02645448
208	0xbd3f2fe4	-0.04667653
209	0xbc46ed0a	-0.012141475
210	0x3d0e9c15	0.03481682
211	0xbcef1785	-0.02918602
212	0xbd953d96	-0.07287137
213	0xbda74bd0	-0.08168757
214	0x3c482726	0.012216365
215	0x3cdc1582	0.026865724
216	0x3ca3ec4c	0.020010136
217	0x3a3e0f9e	0.0007250252
218	0x3d9100eb	0.07080253
219	0xbdb44e90	-0.08804047
220	0x3daad6f2	0.08341779
221	0x3e2ed558	0.17073572
222	0xbd8e1e8a	-0.069394186
223	0xbe023208	-0.12714398
224	0xbd22a97f	-0.039712425
225	0x3d1e5490	0.038654864
226	0x3becd475	0.0072274753
227	0x3d453425	0.048145432
228	0x3ac55f3f	0.0015058293
229	0xbc8098e0	-0.015697896
230	0xbd89f537	-0.06736224
231	0xbcb6f706	-0.022334587
232	0xbbf5c33a	-0.0075000795
233	0x3d496f60	0.04917848
234	0xbdbeea03	-0.09321978
235	0xbc0fd004	-0.008777622
236	0xbcdad4e6	-0.026712846
237	0xbd3f3ed0	-0.046690762
238	0x3d37bdac	0.04485862
239	0xbe1e924c	-0.15485495
240	0x3daeb087	0.08529764
241	0xbe034f63	-0.12823252
242	0xbc74efdb	-0.014949764
243	0xbdcf038f	-0.101081006
244	0x3c7eeba5	0.015559112
245	0xbd0cd21e	-0.03438007
246	0xbdaa7963	-0.08323934
247	0xbe155b42	-0.14585593
248	0xbc84296b	-0.01613303
249	0x3dd6a3be	0.1048045
250	0x3d0f88a8	0.035042435
251	0x3d172834	0.036903575
252	0xbd5a7a34	-0.0533392
253	0x3d8dbb5e	0.06920503
254	0x3c872ed8	0.016501829
255	0xbd1ca4c9	-0.03824309

fc2.bias f4 [84]
0	0x3e4f75c3	0.20259766
1	0x3e448307	0.19190608
2	0x3d73ee35	0.059553344
3	0xbdcc64fc	-0.09980199
4	0x3dd2b601	0.10288621
5	0xbde59f55	-0.11212031
6	0xbe137cf9	-0.14403142
7	0x3c2574cd	0.010098648
8	0x3d7b8141	0.061402563
9	0x3cb9b7ff	0.022670744
10	0x3d33bd65	0.043881793
11	0xbd080010	-0.033203185
12	0x3da7f363	0.08200719
13	0x3d5e0115	0.05420025
14	0xbd8aa326	-0.06769399
15	0x3dde5703	0.1085644
16	0x3e57ff32	0.21093443
17	0x3e104b7f	0.140913
18	0xbb982011	-0.0046424945
19	0x3e6fcc96	0.23417887
20	0x3d17b6d1	0.03703958
21	0xbda47ec7	-0.08031993
22	0x3ea46ba9	0.32113388
23	0xbc716c46	-0.014735287
24	0xbbd414fb	-0.0064722276
25	0xbd83b8f7	-0.064317636
26	0x3eb5f535	0.3553864
27	0x3e4ec0ef	0.20190786
28	0xbb114352	-0.002216537
29	0x3e6afa5e	0.2294707
30	0x3eae03eb	0.33987364
31	0x3e7a7668	0.24459231
32	0xbcf89953	-0.030346548
33	0xbd8596ff	-0.06522941
34	0x3e4489d3	0.19193201
35	0x3e7e6a82	0.24845317
36	0x3e06dc95	0.13170083
37	0x3d361cd3	0.044461083
38	0xbd303228	-0.043016583
39	0x3dc53048	0.096283495
40	0xbdeb4597	-0.114878826
41	0x3da44f63	0.08022954
42	0x3d17c5f8	0.037054032
43	0xbd4fc427	-0.050724175
44	0x3ec846f6	0.3911664
45	0xbdda5108	-0.10659987
46	0x3d42d3c0	0.04756522
47	0x3eccd786	0.4000818
48	0x3e6f23cb	0.23353498
49	0x3dbd8046	0.09252982
50	0x3dccd832	0.100021735
51	0xbd33b5fa	-0.04387472
52	0xbdf164a7	-0.11786776
53	0x3cb604b3	0.022219038
54	0xbdb9e00c	-0.09075937
55	0x3e69d676	0.22835717
56	0x3bd16abe	0.0063908985
57	0x3d0fccfb	0.035107594
58	0x3dad2e25	0.08456067
59	0x3ef18475	0.4717137
60	0x3da54a02	0.080707565
61	0x3e2d55ce	0.16927263
62	0xbd9d2c87	-0.076745085
63	0x3d4958d2	0.04915697
64	0xbdb08d62	-0.08620717
65	0xbe786042	-0.2425547
66	0x3d39653d	0.045262564
67	0xbe1951b6	-0.14972576
68	0x3d86fd6d	0.06591306
69	0x3e8900d2	0.26758438
70	0x3dfd7a62	0.12376858
71	0x3f08ab27	0.5338616
72	0x3e907d84	0.2822076
73	0x3b646748	0.00348516
74	0xbd8680b3	-0.06567516
75	0x3d063c55	0.03277238
76	0x3eb31525	0.3497707
77	0x3e376d08	0.17912686
78	0x3e1232cf	0.14277194
79	0x3e5a3046	0.21307477
80	0xbdf47473	-0.119362734
81	0xbdf708e7	-0.12062245
82	0x3cc8777c	0.024471037
83	0x3e79f70c	0.24410647

fc3.weight f4 [10, 84]
0	0xbe3b6a86	-0.18302354
1	0x3d90358b	0.070414625
2	0x3dde982a	0.10868867
3	0x3ddaed47	0.10689788
4	0xbbde2bf4	-0.006780142
5	0x3e43dcce	0.19127199
6	0x3de7e3f6	0.11322777
7	0xbda593d6	-0.08084838
8	0xbb594900	-0.0033155084
9	0xbe543d3e	-0.20726487
10	0x3d18a201	0.037263874
11	0xbd35fbe3	-0.04442967
12	0x3d758dda	0.059949733
13	0x3c8d6ed9	0.01726477
14	0xbda44290	-0.08020508
15	0xbc8f8466	-0.017519187
16	0xbde630c9	-0.11239774
17	0xbca33bb2	-0.019925926
18	0xbbbcd133	-0.005762243
19	0xbaa8f9f0	-0.001289187
20	0x3ced7143	0.028984671
21	0xbd5bb71b	-0.05364142
22	0xbdf4bb07	-0.11949735
23	0xbd59b99e	-0.053155534
24	0xbdebb487	-0.11509042
25	0x3d636718	0.05551824
26	0xbd545d16	-0.051846586
27	0xbd6c999a	-0.057763673
28	0xbd3a5735	-0.045493323
29	0x3cce4eca	0.025184054
30	0xbe9d8b76	-0.30770463
31	0xbe59ac6e	-0.21257183
32	0xbcb56418	-0.022142455
33	0xbcb1f567	-0.021723462
34	0x3df3d4eb	0.11905845
35	0xbe7a142c	-0.24421757
36	0x3d891680	0.06693745
37	0x3c93c3b0	0.018037647
38	0xbe665688	-0.22493947
39	0xbd92a4fa	-0.07160373
40	0x3da3e408	0.08002478
41	0x3c0885f4	0.008332718
42	0x3d5511d6	0.052018963
43	0x3c68b14d	0.014202428
44	0x3bab8a7d	0.005235015
45	0x3cb825ab	0.022478899
46	0xbd2ed84f	-0.042686757
47	0x3e933fb9	0.28759554
48	0x3c9b8a40	0.018986821
49	0x3e607ad7	0.2192186
50	0x3e0b4e40	0.13604069
51	0xbd1c0fb1	-0.038100902
52	0x3c98760a	0.018610973
53	0x3e35fa7d	0.17771335
54	0x3d16418e	0.03668361
55	0x3e219751	0.15780379
56	0xbd890acd	-0.06691513
57	0x3dd34a89	0.10316951
58	0xbe029295	-0.12751229
59	0xbe69099f	-0.22757576
60	0xbda308c9	-0.0796066
61	0xbd93ce75	-0.07217113
62	0x3e3984ee	0.18117115
63	0x3e1608e1	0.14651825
64	0x3dfe8571	0.12427796
65	0x3ddd1618	0.1079523
66	0x3def02f0	0.11670482
67	0x3e6f31e8	0.23358881
68	0xbe1cc93d	-0.15311141
69	0x3e50388f	0.20334075
70	0x3be6d406	0.007044318
71	0xbea8458b	-0.32865557
72	0x3e5373af	0.20649599
73	0x3c684275	0.014176001
74	0xbce98cb3	-0.028509473
75	0xbc7e1929	-0.015508928
76	0x3e605c9e	0.2191033
77	0x3e6bfe7c	0.23046297
78	0x3d0affb2	0.033935256
79	0xbe5c715e	-0.21527621
80	0x3e1f4ff9	0.15557851
81	0x3d4bae35	0.049726684
82	0xbd1156e6	-0.035483263
83	0xbe91b77a	-0.28460294
84	0xbe77c45f	-0.24196003
85	0xbdaabdd6	-0.083369896
86	0xbdc4ca06	-0.096088454
87	0x3d28cbb0	0.041209877
88	0x3e74e2a2	0.23914579
89	0xbe08422d	-0.13306494
90	0x3d3a3742	0.045462854
91	0xbd877a2f	-0.066151015
92	0x3acf35cc	0.0015808879
93	0x3d9b815d	0.075930335
94	0x3da4ed7f	0.08053111
95	0x3d9b528e	0.075841054
96	0x3cf6406e	0.03006002
97	0x3da61053	0.08108582
98	0xbbb559b9	-0.0055343774
99	0xbd7ae1e7	-0.061250594
100	0x3bfe340a	0.0077576684
101	0xbe11ebe2	-0.14250138
102	0x3df7b489	0.12094981
103	0xbd81ee91	-0.06344331
104	0x3ddbdb39	0.10735173
105	0xbd5b4886	-0.05353596
106	0xbe66b52b	-0.22530048
107	0x3cf62be3	0.030050224
108	0x3e287937	0.1645249
109	0x3def3231	0.11679495
110	0xbe0d47f2	-0.13796976
111	0xbdf8fa42	-0.12157108
112	0x3c24b586	0.010053044
113	0x3cd57b68	0.026059821
114	0xbe4c0f8d	-0.19927807
115	0xbc666dba	-0.014064247
116	0x3d57853b	0.052617293
117	0xbd2b2001	-0.04177857
118	0x3dd2a9ef	0.102863185
119	0xbdaa5e61	-0.083187826
120	0xbda3094a	-0.07960756
121	0x3cd0ff9e	0.025512513
122	0x3eb4f322	0.35341746
123	0x3e2c7f8e	0.16845533
124	0x3dd02559	0.101633735
125	0xbd3ba9eb	-0.045816343
126	0xbe046b36	-0.12931523
127	0x3c73c05b	0.014877404
128	0xbebcb941	-0.36860088
129	0xbdbe0121	-0.09277559
130	0x3e052706	0.13003168
131	0xbdbf5583	-0.09342482
132	0x3bb649a9	0.00556298
133	0xbd08162d	-0.033224273
134	0xbda8aa36	-0.0823559
135	0xbdb3d077	-0.08779996
136	0xbe2d854f	-0.16945384
137	0x3eb48b05	0.35262313
138	0x3de00976	0.109393045
139	0x3e588f07	0.2114831
140	0x3e47b465	0.19502409
141	0x3be6b974	0.0070411507
142	0xbd3ae32b	-0.0456268
143	0xbda80bf7	-0.08205407
144	0xbd590def	-0.052991804
145	0xbe4289f1	-0.18997933
146	0x3c4bd630	0.012441203
147	0xbe2497b1	-0.1607349
148	0xbc372e48	-0.011180468
149	0x3eb0a8e9	0.34503868
150	0xbde6c342	-0.11267711
151	0x3d3a7e80	0.045530796
152	0xbc94dc5f	-0.018171487
153	0xbe49c9f4	-0.19705945
154	0x3b833d38	0.0040051006
155	0xbe03420b	-0.12818162
156	0x3e36faf2	0.17869166
157	0x3decd099	0.11563224
158	0x3cada02c	0.02119454
159	0xbdbee8f9	-0.0932178
160	0xbdf52b03	-0.119710945
161	0x3dff11f8	0.12454599
162	0xbe2c3625	-0.1681753
163	0xbe26f9c5	-0.16306217
164	0x3a91dfe7	0.001112935
165	0x3d73b294	0.059496477
166	0x3e053315	0.13007767
167	0x3da5e8ca	0.081010416
168	0x3dee7f6d	0.11645398
169	0xbdba7194	-0.091036946
170	0xbcca4146	-0.024689328
171	0xbd0aa756	-0.03385099
172	0xbe0a0def	-0.13481878
173	0x3e3586e7	0.17727242
174	0x3d7988cd	0.06092148
175	0x3dd5553a	0.10416646
176	0xbdf8604f	-0.121277444
177	0x3dafce19	0.08584232
178	0x3d92c708	0.071668684
179	0xbbf576fd	-0.007490991
180	0xbc5cc300	-0.013474226
181	0xbe1a4ec8	-0.15069115
182	0x3e434ccf	0.19072269
183	0x3e1e4703	0.15456776
184	0xbd01aecf	-0.03166085
185	0x3e29cd2d	0.16582175
186	0x3c9bdab7	0.01902519
187	0xbd5ae7aa	-0.05344359
188	0x3dee8a37	0.11647456
189	0xbd8f4501	-0.06995583
190	0x3d984fb7	0.074370794
191	0x3de8d215	0.11368195
192	0x3d51aeec	0.05119221
193	0x3d4f29b1	0.05057687
194	0x3d9b1305	0.07571987
195	0x3e43a4bf	0.19105814
196	0xbcec77ad	-0.02886566
197	0xbd00b690	-0.031424105
198	0x3e468776	0.19387612
199	0xbe3a0d47	-0.18169127
200	0xbd4e8ff9	-0.05043027
201	0xbdeb1482	-0.11478521
202	0x3d9f082c	0.077652305
203	0xbddb8c4e	-0.1072012
204	0xbcd1b7d5	-0.025600353
205	0x3d7dc9e4	0.061960116
206	0xbdcabd5b	-0.09899398
207	0xbe33bb20	-0.17551851
208	0xbda258a9	-0.07927067
209	0xbda857f0	-0.08219898
210	0x3d3ecec1	0.046583895
211	0x3d2cf916	0.042229734
212	0x3e203078	0.1564349
213	0xbd4d08a6	-0.050057076
214	0xbe211fbb	-0.1573476
215	0x3d0c7273	0.034288835
216	0x3df520fa	0.119691804
217	0x3e765da3	0.24059157
218	0x3e10b688	0.1413213
219	0xbd02b47f	-0.031910416
220	0x3da7a833	0.08186378
221	0xbd2ff497	-0.04295787
222	0x3dd55348	0.10416275
223	0xbe48fc78	-0.19627559
224	0xbe1cd8e3	-0.1531711
225	0x3d849945	0.06474546
226	0xbe09c615	-0.13454469
227	0x3dd22fde	0.10263036
228	0xbd54a9ef	-0.051919874
229	0x3e581ce0	0.21104765
230	0xbe0d91bd	-0.13825126
231	0x3cd2e914	0.025745906
232	0xbb917847	-0.004439387
233	0xbc9ad4bb	-0.018900266
234	0xbda3fca0	-0.08007169
235	0x3d99da5a	0.075123504
236	0x3c88fb3d	0.016721362
237	0x3e4085f5	0.188011
238	0x3df1d2c3	0.11807778
239	0x3e0d9c6c	0.13829201
240	0xbe2eddb9	-0.17076768
241	0xbdcca24d	-0.09991894
242	0xbcca172f	-0.024669258
243	0xbd834655	-0.06409899
244	0xbc917c64	-0.01775951
245	0x3d94d841	0.0726781
246	0x3db5a6d2	0.08869709
247	0x3d6aa93a	0.057290293
248	0xbd5f944d	-0.05458479
249	0xbda105eb	-0.07862457
250	0x3dfcbbc4	0.12340501
251	0xbd2420be	-0.040070288
252	0x3e0e3edf	0.13891171
253	0x3e15311e	0.14569518
254	0x3cd4ba5d	0.025967771
255	0xbd22967d	-0.039694298

fc3.bias f4 [10]
0	0xbedcb01d	-0.43103114
1	0xbf3db221	-0.7409993
2	0x3d745460	0.05965078
3	0x3f0142b0	0.5049238
4	0x3f4dcdfc	0.8039243
5	0xbd3ebd51	-0.046567265
6	0xbd1ed44e	-0.03877669
7	0xbeb40f77	-0.3516805
8	0x3eff6978	0.49885154
9	0xbe7aa972	-0.24478701
